results/trainval/best_model.pt (torch_old, 472927 bytes, 24 tensors)

weight f4 [64, 1, 3, 3]
0	0xbd82d72c	-0.06388697
1	0xbe02c8bc	-0.12771887
2	0xbdea98cb	-0.11454924
3	0xbe0acc35	-0.13554461
4	0xbe9bd4b9	-0.30435732
5	0x3e20e4a0	0.15712214
6	0xbe9e0994	-0.30866683
7	0x3d7eb242	0.06218172
8	0x3e2c2695	0.16811593
9	0xbe45705a	-0.1928114
10	0x3de68050	0.112549424
11	0x3dd5e0f3	0.10443296
12	0x3df15083	0.117829345
13	0x3e45cb87	0.19315921
14	0xbe4e859e	-0.20168158
15	0x3dc75004	0.09732059
16	0xbe4eb4d5	-0.2018617
17	0x3d9e066b	0.07716068
18	0xbe5196ef	-0.20467733
19	0x3df4c03f	0.119507305
20	0x3d27c0fe	0.040955536
21	0xbe6271b3	-0.22113685
22	0xbea85e36	-0.32884377
23	0x3d569317	0.05238637
24	0x3e2d5e74	0.16930562
25	0x3d4d2e8f	0.05009323
26	0xbd7c17fc	-0.06154631
27	0xbd67fb85	-0.056636352
28	0x3e4760c0	0.19470501
29	0xbe74940f	-0.23884605
30	0x3dd99a26	0.106251046
31	0xbe3d59aa	-0.18491235
32	0x3e37e9f0	0.17960334
33	0xbd895bca	-0.067069605
34	0x3b199c80	0.0023439229
35	0x3dc166c1	0.09443427
36	0x3e3fd374	0.18733007
37	0xbde3a4c3	-0.1111541
38	0x3e9050f4	0.28186762
39	0xbe8ec063	-0.27881154
40	0xbe908709	-0.28228024
41	0xbe9c6874	-0.3054844
42	0xbbed7024	-0.007246034
43	0x3d80b2b0	0.06284082
44	0xbd3b17f1	-0.04567713
45	0x3dcf550d	0.10123644
46	0xbd93ef7b	-0.07223412
47	0xbe81e5e5	-0.25370708
48	0x3e6eab7a	0.233076
49	0x3e5d01fd	0.2158279
50	0x3e670eea	0.22564283
51	0x3e78479b	0.24246065
52	0x3e02c782	0.12771419
53	0x3e644e2a	0.22295442
54	0x3e8d0dd8	0.27549624
55	0xbe0daa55	-0.13834508
56	0xbe2a64a2	-0.16639951
57	0xbe459c32	-0.19297865
58	0xbe4a77f8	-0.19772327
59	0x39888cd6	0.00026044872
60	0xbd5164f3	-0.051121663
61	0x3e0c5308	0.13703549
62	0x3db635d1	0.088969834
63	0xbe78af4f	-0.24285625
64	0xbe65307a	-0.22381774
65	0xba9faa87	-0.0012181558
66	0x3e6b2738	0.2296418
67	0xbdef7983	-0.116930984
68	0xbe03da30	-0.128762
69	0xbcf538d2	-0.02993432
70	0xbc94dc92	-0.018171582
71	0xbd269632	-0.04067058
72	0xbeb25d35	-0.34836736
73	0x3e90d2ac	0.2828573
74	0x3dffef59	0.12496824
75	0xbe635df9	-0.22203816
76	0xbe98e105	-0.29859176
77	0x3ccb87c0	0.024845004
78	0x3db43e91	0.08800996
79	0xbe7bab44	-0.24577051
80	0xbdfbebcb	-0.12300833
81	0x3ddc7633	0.10764732
82	0xbe582627	-0.21108304
83	0xbd8072ec	-0.062719196
84	0xbe9f98f8	-0.31171393
85	0x3e9e0a89	0.30867413
86	0x3dd05540	0.1017251
87	0xbeb73742	-0.35784346
88	0xbe49e364	-0.19715649
89	0x3d7cfa3b	0.061762076
90	0xbc003247	-0.007824487
91	0xbbe394da	-0.0069452347
92	0xbe7664f0	-0.24061942
93	0xbe401301	-0.1875725
94	0x3e3a624e	0.18201563
95	0xbe89e490	-0.26932192
96	0xbdabe16f	-0.083926074
97	0x3d23a9bc	0.039956793
98	0x3e72301d	0.23651166
99	0x3bcf974a	0.0063351737
100	0x3e114769	0.14187397
101	0x3df074f5	0.11741058
102	0xbd660e19	-0.05616579
103	0xbe259131	-0.16168667
104	0x3e8e5ee4	0.2780677
105	0x3e9c91a1	0.30579856
106	0x3dc3e9d4	0.095660836
107	0xbe11e906	-0.14249048
108	0xbe844c5b	-0.25839505
109	0xbec125e6	-0.37724227
110	0xbc047b08	-0.008085974
111	0xbdffed46	-0.12496428
112	0xbc1d612b	-0.009605686
113	0xbb7282a7	-0.0037004144
114	0x3e8f4919	0.27985457
115	0x3eb7f8af	0.35931918
116	0xbd416427	-0.047214653
117	0xbe610a44	-0.21976572
118	0x3de8e43e	0.11371659
119	0xbcb16b0b	-0.021657487
120	0xbeca120c	-0.39466894
121	0x3dd47f0d	0.103757955
122	0x3e763683	0.24044232
123	0xbe82a7a0	-0.25518513
124	0xbb129a07	-0.002236964
125	0x3da65c65	0.081230916
126	0xbe8189d7	-0.25300476
127	0xbe894d5c	-0.26816833
128	0x3e629d0a	0.22130218
129	0xbd790d5c	-0.060803756
130	0x3e94a1a2	0.29029566
131	0xbcdf80f1	-0.027283164
132	0x3db2d3cc	0.08731803
133	0xbe7890ee	-0.24274036
134	0xbda215bf	-0.07914304
135	0x3dbaa347	0.09113174
136	0x3df78c2f	0.12087285
137	0xbe4bc802	-0.19900516
138	0x3d2de9b5	0.04245921
139	0x3e71c87d	0.23611636
140	0xbed10f5f	-0.4083204
141	0x3e2e852c	0.17042989
142	0xbda4fcde	-0.08056043
143	0xbde2aac2	-0.11067726
144	0x3e2cce50	0.16875577
145	0xbe985b79	-0.29757288
146	0x3c9f6bbb	0.01946055
147	0x3e8b105b	0.27160916
148	0xbd347e47	-0.04406574
149	0xbe6f28de	-0.23355433
150	0xbe23faa9	-0.16013588
151	0x3e856d49	0.2605994
152	0x3dc6a954	0.097002655
153	0x3e442bf3	0.1915739
154	0xbe824235	-0.25441137
155	0x3e16c880	0.14724922
156	0xba204904	-0.0006114396
157	0xbce010ef	-0.027351825
158	0x3ec90c1a	0.39267045
159	0x3e3e87f2	0.18606547
160	0x3e0df501	0.13862993
161	0x3de2b44d	0.11069546
162	0x3dfe23e9	0.12409193
163	0x3d8613ef	0.06546771
164	0xbddc7e15	-0.10766236
165	0xbe9f76e5	-0.31145397
166	0xbea0317e	-0.3128776
167	0xbe62ee9f	-0.22161339
168	0x3e1a80ee	0.15088245
169	0x3dea0735	0.11427156
170	0xbde5a004	-0.11212161
171	0xbe8164ca	-0.25272208
172	0x3e44bd2e	0.19212791
173	0x3e05e810	0.13076806
174	0x3dbea625	0.09309033
175	0x3ec35601	0.38151553
176	0xbe55ef60	-0.20892096
177	0xbe510674	-0.20412618
178	0xbe9566d9	-0.2918003
179	0xbe61e553	-0.22060136
180	0xbe942f2b	-0.28942236
181	0x3e6b3861	0.22970726
182	0xbc39e034	-0.011344958
183	0x3e0febe7	0.14054833
184	0xbe83d3f3	-0.25747642
185	0xbb18976e	-0.0023283619
186	0xbcafa481	-0.021440746
187	0xbe5d058a	-0.21584144
188	0x3e8900ab	0.26758322
189	0xbe301bc5	-0.17198093
190	0x3b8150eb	0.0039464138
191	0xbe8ba3f8	-0.27273536
192	0xbd8ff34f	-0.07028829
193	0xbe3152e5	-0.17316778
194	0x3dc8c3fe	0.098030075
195	0x3e555c0b	0.20835893
196	0x3c990ff7	0.01868437
197	0xbd6064aa	-0.0547835
198	0xbda32b38	-0.07967228
199	0x3e896cc9	0.2684081
200	0xbd8c4e44	-0.068508655
201	0x3e77484e	0.24148676
202	0xbe8ded8f	-0.27720305
203	0x3ea0d35e	0.3141126
204	0x3e8bb606	0.2728731
205	0x3daf281e	0.085525736
206	0x3e4c8569	0.19972767
207	0x3df0c8ca	0.117570475
208	0xbe043c22	-0.12913564
209	0xbd858ff1	-0.06521595
210	0x3ddb3e6a	0.10705264
211	0xbe07ec76	-0.13273796
212	0x3d01bcfd	0.031674374
213	0x3e2a4d15	0.16630967
214	0xbeb7f087	-0.35925695
215	0xbea15e01	-0.31517032
216	0xbda020b0	-0.07818735
217	0x3d176f46	0.036971353
218	0xbe03b67d	-0.12862583
219	0x3d5a146c	0.053242132
220	0xbdc0d9de	-0.09416555
221	0xbe5c6a83	-0.21525006
222	0xbd352d64	-0.04423274
223	0x3e6d195b	0.23154204
224	0xbe8f1110	-0.27942705
225	0x3e794c12	0.24345425
226	0xbd5fa1b7	-0.054597583
227	0x3e79642a	0.24354616
228	0xbeabe09f	-0.3356981
229	0xbeb66c20	-0.35629368
230	0x3de53c86	0.111931846
231	0xbec2cfb6	-0.38049096
232	0xbeacbbb2	-0.3373695
233	0x3e3ea996	0.1861938
234	0x3e14c89d	0.14529653
235	0xbe7424be	-0.23842141
236	0x3e7ce467	0.24696504
237	0xbc8e4ceb	-0.017370662
238	0x3e3ecbde	0.18632457
239	0xbe294e2f	-0.16533731
240	0xbeb6beb8	-0.35692382
241	0xbec61911	-0.38691
242	0xbe14a9ca	-0.14517894
243	0xbe5ab2dc	-0.21357292
244	0x3d0df947	0.034661558
245	0xbe2769d3	-0.16348962
246	0xbd3a7be8	-0.045528322
247	0x3c906efd	0.017631048
248	0x3de0990b	0.10966691
249	0xbeae21a6	-0.34010047
250	0x3e2754a0	0.16340876
251	0xbe87224c	-0.26393354
252	0x3e20632c	0.15662831
253	0x3e88f608	0.26750207
254	0xbdd0bed8	-0.101926506
255	0xbc663d72	-0.014052736

bias f4 [64]
0	0xbe20f916	-0.15720019
1	0x3e948111	0.2900472
2	0xbea2af70	-0.31774473
3	0xbdb030c5	-0.08603052
4	0x3db4f975	0.08836643
5	0x3e6fbcc8	0.23411858
6	0xbe9f8174	-0.31153452
7	0xbe7fb4f0	-0.24971366
8	0x3e3aa4f2	0.18226984
9	0x3e6c200a	0.23059097
10	0x3e57fc2a	0.21092287
11	0x3e4b7829	0.19870056
12	0xbe9f05dd	-0.3105916
13	0x3e0b65a3	0.1361299
14	0xbc983bad	-0.018583143
15	0x3c2496b1	0.010045693
16	0xbbf27fb7	-0.0074004787
17	0x3eb962c3	0.36208162
18	0x3c727f2e	0.01480083
19	0xbe8bda86	-0.27315158
20	0x3e4f7859	0.20260753
21	0x3d3bf861	0.04589117
22	0xbe400f08	-0.18755734
23	0xbe25a643	-0.16176705
24	0xbe8e1512	-0.2775045
25	0x3d97d959	0.07414503
26	0x3dd90adf	0.105977766
27	0xbe1c3224	-0.15253502
28	0x3c00bc1b	0.007857348
29	0xbe812cfe	-0.2522964
30	0xbeabc6cb	-0.33550104
31	0xbc6e8eba	-0.014560396
32	0x3ead8c41	0.33896068
33	0xbe8ca338	-0.27468276
34	0x3dbdc788	0.09266573
35	0xbe334803	-0.17507939
36	0x3cf43ddc	0.029814653
37	0x3d415586	0.047200702
38	0xbe2c7f74	-0.16845495
39	0xbe8740df	-0.2641668
40	0xbdb06ee9	-0.086149044
41	0xbd0b39b4	-0.033990577
42	0x3e5411a9	0.20709862
43	0x3e2cb3e3	0.16865496
44	0x3e2a5800	0.16635132
45	0xbe7a82e9	-0.24464001
46	0xbe8a7be7	-0.27047655
47	0xbe579373	-0.21052341
48	0xbe8e1797	-0.27752373
49	0x3c8c54d4	0.017130293
50	0xbde75cdd	-0.11297009
51	0xbcb9bc9b	-0.022672942
52	0xbda60ef5	-0.081083216
53	0xbc8c2030	-0.017105192
54	0x3de4a6ab	0.11164602
55	0x3ea1f147	0.31629393
56	0xbd45fc33	-0.04833622
57	0x3e9dea4d	0.3084282
58	0x3e8696e5	0.26286998
59	0x3e59066d	0.21193857
60	0xbdf41597	-0.119181804
61	0x3d1a33c6	0.03764703
62	0xbe5bd8f3	-0.21469478
63	0x3cb67158	0.022270843

weight f4 [64]
0	0x3ee0e1d8	0.43922305
1	0x3ddb599f	0.10710453
2	0x3d78fa5d	0.06078564
3	0x3e841f89	0.2580531
4	0x3f1ded6b	0.61690396
5	0x3e997fbe	0.29980272
6	0x3f188af1	0.5958701
7	0x3f820107	1.0156564
8	0x3f5d5323	0.8645498
9	0x3f54c2a8	0.8310952
10	0x3ebaab83	0.36458978
11	0x3ee62852	0.44952637
12	0x3f0377b0	0.51354504
13	0x3ed2065b	0.41020474
14	0x3e71d432	0.23616102
15	0x3edcc979	0.4312246
16	0x3dbc5acd	0.091970064
17	0x3ed5703e	0.41687196
18	0x3eda64d8	0.42655063
19	0x3e9b91d4	0.30384696
20	0x3e8c3ae7	0.2738869
21	0x3f558731	0.8340941
22	0x3d35e619	0.04440889
23	0x3ebed722	0.37273508
24	0x3f5ea517	0.8697066
25	0x3f18bf9e	0.59667385
26	0x3f7d4f1f	0.98948854
27	0x3f3b8a7e	0.732582
28	0x3f18fc7e	0.5976027
29	0x3f265ee4	0.6498854
30	0x3f146064	0.5795958
31	0x3edb20c4	0.42798436
32	0x3eea72be	0.45790666
33	0x3e148206	0.14502725
34	0x3f15e742	0.58555996
35	0x3f04ecce	0.51923835
36	0x3e315cde	0.17320582
37	0x3d993bc2	0.07482101
38	0x3f326c57	0.69696563
39	0x3df18d56	0.11794536
40	0x3f053c49	0.5204511
41	0x3f365d6d	0.71236306
42	0x3f0b84f1	0.5449973
43	0x3f16ba2a	0.58877814
44	0x3f1c5d4e	0.6107987
45	0x3f21a84e	0.6314744
46	0x3e933d6d	0.28757802
47	0x3f5bcebd	0.8586233
48	0x3eccac2c	0.39975107
49	0x3f619c48	0.8812909
50	0x3ebd1dc3	0.3693677
51	0x3ea64ea5	0.32481876
52	0x3da0f665	0.07859496
53	0x3f83d718	1.0300016
54	0x3e3b6ec2	0.1830397
55	0x3f2f7abc	0.6854665
56	0x3e53864c	0.20656699
57	0x3e95f28f	0.2928662
58	0x3eccefa9	0.40026596
59	0x3e7dd8e5	0.2478977
60	0x3f3ab445	0.7293132
61	0x3f63c55d	0.8897303
62	0x3e6f5ce4	0.23375279
63	0x3eb11840	0.34588814

bias f4 [64]
0	0x3d51da2d	0.05123346
1	0xbe0bbd2c	-0.13646382
2	0x3e3ad698	0.18245924
3	0xbe17612d	-0.14783163
4	0xbe0fd6c8	-0.14046776
5	0xbe4407ba	-0.19143572
6	0xbd3a18bc	-0.045433745
7	0xbd9bf2c4	-0.07614663
8	0xbdad2898	-0.08455008
9	0x3cca255a	0.024676014
10	0xbc3fc64c	-0.0117049925
11	0xbe8b4a25	-0.27205005
12	0x3d284f12	0.041091032
13	0x3d070f7b	0.032973748
14	0x3dd64eba	0.10464235
15	0xbd7fa823	-0.062416207
16	0xbe2e6c5d	-0.17033525
17	0xbe2c0b1d	-0.16801114
18	0xbc241db1	-0.010016845
19	0x3c5d2cce	0.013499452
20	0x3d11936f	0.035540994
21	0x3be9367d	0.007117091
22	0xbda408d0	-0.08009493
23	0x3d3f5133	0.046708297
24	0xbc48dce3	-0.012259695
25	0x3d07497f	0.033029076
26	0xbd091081	-0.033463005
27	0x3d11d970	0.035607755
28	0xbe8e22d5	-0.2776095
29	0xbe2a754e	-0.1664631
30	0xbe703e57	-0.23461281
31	0xbe636e5e	-0.2221007
32	0xbda212cd	-0.07913742
33	0xbe3521b1	-0.17688634
34	0xbe200196	-0.15625605
35	0xbe5f6a3d	-0.2181787
36	0xbe20c098	-0.15698469
37	0xbd923039	-0.07138104
38	0xbd69f85e	-0.057121627
39	0xbdf3e1b4	-0.11908284
40	0xbe2bdb65	-0.16782911
41	0xbea3314d	-0.3187355
42	0xbe0b27b5	-0.13589366
43	0xbe47b2c2	-0.19501784
44	0xbd8d8733	-0.06910553
45	0xbdb689c4	-0.089129955
46	0xbdb52c97	-0.088463955
47	0x3da92d9d	0.08260653
48	0xbe330871	-0.17483689
49	0xbd6382a3	-0.055544507
50	0xbdce77e4	-0.10081461
51	0xbe39bdf4	-0.18138868
52	0xbdfea105	-0.12433056
53	0xbe4b8fee	-0.19879124
54	0xbd817421	-0.06320978
55	0xbe80d821	-0.25164893
56	0xbe3086f7	-0.17238985
57	0x3e045366	0.12922439
58	0xbe33bec5	-0.17553242
59	0xbd5d20b5	-0.05398627
60	0xbe441ca7	-0.19151555
61	0xbc4de099	-0.012565755
62	0xbe017113	-0.1264079
63	0x3e058f23	0.13042884

running_mean f4 [64]
0	0xbe56009e	-0.20898673
1	0x3e98c2dc	0.29836166
2	0xbeb20db1	-0.3477607
3	0xbdaba74c	-0.08381519
4	0x3d4a77c8	0.04943064
5	0x3ea1c7ad	0.31597653
6	0xbea937f1	-0.33050492
7	0xbe96d680	-0.29460526
8	0x3e019279	0.12653531
9	0x3e3f394a	0.18674198
10	0x3e3cb824	0.18429619
11	0x3e7a4889	0.24441732
12	0xbea69d24	-0.32541764
13	0x3ddda4cd	0.10822449
14	0xbd36df4e	-0.044646554
15	0xba5ad289	-0.0008347412
16	0xba8ca845	-0.00107313
17	0x3edcca27	0.4312298
18	0xbd06e2d2	-0.032931156
19	0xbe9af7b1	-0.302671
20	0x3e425846	0.18978986
21	0x3c65d3cd	0.014027548
22	0xbde6a0de	-0.11261152
23	0xbe541919	-0.20712699
24	0xbea2d517	-0.318032
25	0x3cad7d39	0.021177875
26	0x3d462ab3	0.048380565
27	0xbe549be3	-0.20762591
28	0x3d881d61	0.066462286
29	0xbe92cc37	-0.2867143
30	0xbe8299bb	-0.25507912
31	0x3d030d3d	0.031995047
32	0x3ea42a30	0.32063437
33	0xbe4eff1c	-0.20214504
34	0x3da298eb	0.07939323
35	0xbdc2ede6	-0.09518032
36	0x3d1202a9	0.03564707
37	0x3d5f434b	0.054507535
38	0xbe4455ab	-0.19173305
39	0xbe893cb2	-0.2680412
40	0xbe011e02	-0.12609103
41	0x39e9a795	0.00044566081
42	0x3e3f943a	0.18708888
43	0x3e241667	0.16024171
44	0x3deedd0a	0.116632536
45	0xbe81b334	-0.25332034
46	0xbe9e465c	-0.30913055
47	0xbe6b98ac	-0.23007458
48	0xbe901930	-0.28144217
49	0xbd07314d	-0.033006
50	0xbe21b301	-0.15790941
51	0xbc03ea83	-0.008051517
52	0xbd84e13b	-0.06488272
53	0xbd80ec13	-0.062950276
54	0x3d43c166	0.04779186
55	0x3ecb5a01	0.39717105
56	0xbaab9b17	-0.0013092485
57	0x3e90076a	0.28130656
58	0x3e8b38cb	0.27191767
59	0x3e356f9a	0.17718354
60	0xbe311899	-0.1729454
61	0x3c98adf5	0.018637637
62	0xbe6cf170	-0.23138976
63	0xbca1c66b	-0.019747933

running_var f4 [64]
0	0x3ce91eb4	0.028457023
1	0x3ba9b262	0.0051787356
2	0x3c765c8d	0.015036714
3	0x3b643dd3	0.003482689
4	0x3cd76dde	0.026297506
5	0x3d52af30	0.051436603
6	0x3c355645	0.011067932
7	0x3c85c0b2	0.016327236
8	0x3d07c4b6	0.033146583
9	0x3cceccbd	0.025244111
10	0x3c572a38	0.013132624
11	0x3c7a7fb3	0.015289235
12	0x3d050370	0.03247398
13	0x3cf58e9e	0.029975232
14	0x3c57e0d3	0.013176161
15	0x3cb44c05	0.022008905
16	0x3c4b7782	0.01241863
17	0x3d049cfa	0.032376267
18	0x3ce1816f	0.027527539
19	0x3cd480b1	0.025940271
20	0x3c215d29	0.009848871
21	0x3c5598c2	0.013036909
22	0x3d08d373	0.03340478
23	0x3cef0cfc	0.029180996
24	0x3c86af04	0.016440876
25	0x3d818dbd	0.063258626
26	0x3d1a6070	0.037689626
27	0x3ca4df51	0.020126017
28	0x3cfc5f49	0.030807154
29	0x3c3bac3d	0.011454639
30	0x3d35c5c5	0.04437806
31	0x3c871074	0.016487338
32	0x3bac104d	0.0052509666
33	0x3d0717a0	0.032981515
34	0x3c73fee4	0.014892314
35	0x3d13fe4a	0.03613118
36	0x3c18452f	0.009293838
37	0x3cfb26aa	0.030658085
38	0x3cc62306	0.024186622
39	0x3b76bba1	0.0037648457
40	0x3c8c34c4	0.017115004
41	0x3c991aa1	0.018689455
42	0x3cb49a62	0.022046272
43	0x3c3f8bef	0.011691078
44	0x3cc78c94	0.024359025
45	0x3c487198	0.012234114
46	0x3c7f82dd	0.015595165
47	0x3c403c41	0.011733116
48	0x3c45d31c	0.012074258
49	0x3cc2406b	0.023712358
50	0x3cdf2b74	0.0272424
51	0x3b66341b	0.0035126272
52	0x3c8f00ef	0.0174565
53	0x3c97a840	0.018512845
54	0x3d317f10	0.043334067
55	0x3d1827a2	0.03714717
56	0x3ca1dfd7	0.019760055
57	0x3d0c7b59	0.03429732
58	0x3c15b2c2	0.009136857
59	0x3ca959af	0.020672647
60	0x3d2f7bf4	0.04284282
61	0x3bab3cdc	0.005225761
62	0x3c8a8847	0.016910685
63	0x3cb4b7c3	0.02206028

weight f4 [64, 64, 3, 3]
0	0xbc8eb8f0	-0.01742217
1	0x3b4bbcc0	0.0031087846
2	0x3dd6c63d	0.1048703
3	0xbdb70f4e	-0.08938466
4	0xbcb8c8f6	-0.022556763
5	0x3d8d859d	0.0691025
6	0xbd980a34	-0.07423821
7	0xbd1ca75c	-0.038245544
8	0xbca74523	-0.02041871
9	0xbd8647a6	-0.065566346
10	0xbc0daf60	-0.00864777
11	0xbcee30c4	-0.029075988
12	0xbd50a24b	-0.050936025
13	0x3c927acf	0.017880825
14	0xbc0f66ae	-0.008752508
15	0xbdcdda0f	-0.10051357
16	0xbd29dafb	-0.0414686
17	0x3c0c712b	0.008571903
18	0x3b8d82c6	0.004318568
19	0x3dba0646	0.09083228
20	0xbc9d46b1	-0.019198747
21	0xbb9e9db6	-0.004840578
22	0x3c77cb26	0.015124118
23	0xbe03faee	-0.12888691
24	0xbe0a9446	-0.13533124
25	0xbdd9fa4e	-0.10643445
26	0xbd87b27e	-0.066258416
27	0xbd55e1bc	-0.05221723
28	0xbd63dc47	-0.055629995
29	0x3d310155	0.04321416
30	0xbcbd7687	-0.023127807
31	0x3c1995f7	0.009374133
32	0x3d3038df	0.043022987
33	0xbd3c00e4	-0.045899287
34	0xbbdc056e	-0.0067145145
35	0xbd50ece9	-0.051007185
36	0x3d398b2a	0.045298733
37	0xbd02587b	-0.031822663
38	0x3df89d3a	0.121393636
39	0x3d34fb31	0.044184867
40	0xbc4a3acf	-0.012343123
41	0x3d1fc044	0.03900172
42	0x3d99f390	0.07517159
43	0xbd9ced16	-0.07662408
44	0x3c9ea83a	0.019367326
45	0x3c13ac79	0.009013289
46	0xbd79cc79	-0.060986016
47	0xbd59cbc3	-0.053172838
48	0x3d38984a	0.04506711
49	0xbd837200	-0.06418228
50	0x3cf6da1b	0.030133298
51	0xbb943f32	-0.004524135
52	0xbd25a38d	-0.040439177
53	0xbb5f2b6c	-0.003405298
54	0xba36f0a9	-0.000697861
55	0xbdf843e5	-0.12122325
56	0x3dafc2d0	0.085820794
57	0x3d88a847	0.06672721
58	0xbdb1e3fe	-0.08686064
59	0xbd72aa24	-0.05924429
60	0xbda41bbb	-0.08013102
61	0xbde45bd0	-0.11150324
62	0xbd3c2145	-0.045930166
63	0xbcdf5772	-0.027263377
64	0xba5ff874	-0.00085437973
65	0xbcbe5ec5	-0.023238549
66	0x3d19fd15	0.037594873
67	0xbdb46668	-0.08808595
68	0xbe20dd5c	-0.15709442
69	0xbe049848	-0.12948716
70	0x3c419632	0.0118155945
71	0xbe130d9c	-0.1436066
72	0xbd235e44	-0.03988482
73	0xbc98d2db	-0.018655231
74	0xbd26436a	-0.040591635
75	0x3d6246f1	0.055243436
76	0x3d253c92	0.040340967
77	0xbdea4050	-0.11438048
78	0xbce5577b	-0.027995816
79	0xbe045a65	-0.12925108
80	0xbd435e89	-0.047697578
81	0xbdba42ef	-0.09094798
82	0x3d4902c8	0.049074918
83	0xbddeb3a3	-0.10874107
84	0x3d4f9818	0.050682157
85	0xbe07df16	-0.13268694
86	0xbc96b697	-0.018397612
87	0xbde9e916	-0.11421411
88	0xbc8d7bb5	-0.017270902
89	0xbd919706	-0.071088836
90	0xbcea0ba9	-0.028570013
91	0x3ba800b5	0.0051270374
92	0x3cef121e	0.029183444
93	0x3d1843b2	0.037173934
94	0x3d26e82a	0.040748753
95	0x3dadddf6	0.08489601
96	0xbd090ba4	-0.033458367
97	0x3da1f15d	0.079073645
98	0xbdb06c29	-0.0861438
99	0xbc9ae5ae	-0.018908348
100	0x3d9e0e47	0.07717567
101	0xbcfbab6a	-0.030721385
102	0xbce92fbf	-0.02846515
103	0x3d27e780	0.04099226
104	0x3c029fc4	0.007972661
105	0xbd7e6685	-0.06210949
106	0xbcc8a9fe	-0.024495121
107	0xbc07b01a	-0.008281732
108	0x3c0e08b7	0.00866907
109	0xbcde8f09	-0.027167814
110	0xbd024890	-0.031807482
111	0xbcce2a07	-0.025166525
112	0x3cd260fd	0.025681013
113	0xbc695236	-0.014240792
114	0xbcfe50e7	-0.031044437
115	0xbcc50836	-0.024051767
116	0xbd024029	-0.03179947
117	0xbd17f587	-0.037099387
118	0x3df0135c	0.117224425
119	0xbda6d9d7	-0.081470184
120	0xbca2027c	-0.019776575
121	0xbce151fd	-0.027504915
122	0x3cab0724	0.020877428
123	0xbd9b9180	-0.07596111
124	0x3d8f3f83	0.06994536
125	0xbdd72eb4	-0.10506955
126	0xbe022e33	-0.12712936
127	0x3d4d1c93	0.05007608
128	0xbe06eb83	-0.13175778
129	0x3db22883	0.08699133
130	0x3e056dae	0.1303012
131	0x3bf92b61	0.007604048
132	0xbe3f9d0f	-0.18712257
133	0x3d1c7b06	0.03820326
134	0x3d7ad704	0.06124021
135	0x3dac6de2	0.08419396
136	0xbcbf1adf	-0.023328243
137	0x3d82e2a7	0.06390887
138	0x3b11fb8e	0.0022275182
139	0xbd1694a8	-0.036762863
140	0x3ce09763	0.027415937
141	0x3c54ab0c	0.012980234
142	0xbc4bdf8c	-0.012443434
143	0xbcc271c3	-0.023735886
144	0xbb0d801a	-0.0021591247
145	0xbdf83328	-0.12119132
146	0xbc9a94be	-0.018869754
147	0x3dd6b9ff	0.10484695
148	0xbd305c61	-0.04305685
149	0x3d57dc82	0.052700527
150	0xbbfa77fa	-0.007643697
151	0xbcac08c2	-0.02100027
152	0xbcd34224	-0.025788374
153	0xbc83a4a6	-0.016069721
154	0x3d071dea	0.032987513
155	0xbb8a7593	-0.0042254417
156	0x3cd83c19	0.026395844
157	0x3d32a56e	0.043614797
158	0x3d0daf90	0.034591258
159	0xbcfb4e9d	-0.030677134
160	0x3d67082b	0.056404274
161	0x3d3d595c	0.046227798
162	0x3dde86a1	0.10865522
163	0xbe1bb5c4	-0.15206057
164	0xbdb05fec	-0.08612046
165	0x3c12946e	0.008946521
166	0xbd91705d	-0.0710151
167	0xbe059e5b	-0.13048689
168	0xbe0cea6f	-0.13761304
169	0xbe1dbd76	-0.15404305
170	0xbe54d8fa	-0.20785895
171	0xbd6b1779	-0.057395432
172	0x3d005424	0.031330243
173	0xbd8952b9	-0.06705231
174	0x3d169468	0.036762625
175	0x3d12a7cf	0.035804566
176	0xbd3807ca	-0.044929303
177	0xbd28ef1c	-0.041243657
178	0x3cbb47b4	0.02286134
179	0x3c74feed	0.014953357
180	0xbd6d9efe	-0.058012955
181	0x3d18afbe	0.037276976
182	0x3cef0807	0.029178632
183	0xbd874a60	-0.06605983
184	0x3d40fc1e	0.047115438
185	0xbbc8d09d	-0.0061283843
186	0xbc741887	-0.014898426
187	0xbbe73575	-0.007055933
188	0xbd3930d1	-0.04521257
189	0x3d05564e	0.03255301
190	0xbd3d3172	-0.046189733
191	0xbdaaf480	-0.08347416
192	0x3c6ac2fa	0.014328713
193	0x3d623cb9	0.05523369
194	0xbd5c6e1c	-0.053815946
195	0xbca1e112	-0.019760642
196	0xbcda3928	-0.026638582
197	0xbd29d281	-0.041460518
198	0xbd2bbb96	-0.041926943
199	0xbce126a8	-0.027484253
200	0xbb38043c	-0.0028078696
201	0x3cd87ad3	0.026425755
202	0xbca3cfc1	-0.019996526
203	0xbc150567	-0.009095526
204	0xbd294f94	-0.041335657
205	0x3c4bef1f	0.012447148
206	0x3ce5dd7d	0.028059715
207	0x3d6d92ec	0.058001444
208	0xbe355e1a	-0.17711678
209	0x3db50242	0.08838321
210	0x3d04ffa2	0.032470353
211	0xbcc06cb6	-0.023489337
212	0xbbda238a	-0.0066570686
213	0x3d43800f	0.047729548
214	0xbd5a2193	-0.053254675
215	0x3d8a0976	0.06740086
216	0x3db02420	0.0860064
217	0xbd2d235a	-0.042270042
218	0x3d0e0d46	0.034680627
219	0x3d65c762	0.05609835
220	0xbdadfe16	-0.08495729
221	0xbde38768	-0.11109811
222	0x3b4781c0	0.0030442327
223	0xbcb1df18	-0.021712825
224	0xbe038881	-0.12845041
225	0x3ba013b8	0.004885163
226	0x3d2e489f	0.042549726
227	0x3d0399bf	0.032129046
228	0xbd2f5d7c	-0.042813763
229	0xbb66f4c2	-0.0035241102
230	0xbcb5521a	-0.022133876
231	0xbd4ae64e	-0.049536042
232	0x3dc9be71	0.09850777
233	0xbc916ee8	-0.01775308
234	0xbd15a6ad	-0.036535908
235	0xbd51c1b9	-0.05121014
236	0x3cc3eaa8	0.023915604
237	0x3dce1860	0.10063243
238	0x3cc1c20f	0.023652105
239	0x3b9d7289	0.0048049134
240	0xbd92113a	-0.07132192
241	0xbd2cde1b	-0.042204004
242	0xbcb66094	-0.022262849
243	0x3d63fdd1	0.05566198
244	0x3cc44679	0.023959385
245	0xbd04e925	-0.032448906
246	0x3d0f9c27	0.035061028
247	0x3dc210bd	0.09475849
248	0x3b98e696	0.00466616
249	0xbbcad7c7	-0.0061902734
250	0x3d8a5967	0.067553334
251	0xbd338ce8	-0.04383555
252	0x3cdd7dd9	0.027037548
253	0x3aa2fa01	0.0012434126
254	0xbd51e6aa	-0.05124537
255	0xbcede60f	-0.029040365

bias f4 [64]
0	0x3bf3521f	0.007425561
1	0x3ce4b17f	0.027916668
2	0xbd69094f	-0.056893643
3	0x3da08bb7	0.078391485
4	0xbc62d8bf	-0.013845622
5	0x3ca26622	0.019824091
6	0xbc9568fe	-0.01823854
7	0xbd20667e	-0.039160244
8	0x3c639e24	0.013892684
9	0x3d8c5bb4	0.068534285
10	0x3d19f1d5	0.037584145
11	0xbd10cb08	-0.035349876
12	0xbbc88aee	-0.0061200773
13	0x3d992119	0.07477016
14	0xbcf9ea7f	-0.030507324
15	0x3d846002	0.064636245
16	0x3d2c5290	0.042070925
17	0x3c622987	0.013803846
18	0xbd0e497f	-0.03473806
19	0xbbfa4db2	-0.0076386565
20	0xbd3f1762	-0.04665316
21	0xbcfc409f	-0.030792532
22	0xbc272589	-0.01020182
23	0xbd15b709	-0.03655151
24	0xbc833b6e	-0.01601955
25	0xbcbe45ad	-0.023226583
26	0xbb2bf5de	-0.0026239078
27	0x3d6f3618	0.058401197
28	0x3c355b28	0.011069097
29	0x3d253fca	0.040344037
30	0x3b021a29	0.0019852018
31	0xbc00aca9	-0.007853665
32	0xbd2c1335	-0.042010505
33	0x3c9ab427	0.018884731
34	0xbc8004af	-0.015627233
35	0xbbdfed8d	-0.006833738
36	0xbb9bebf4	-0.0047583524
37	0x3d15e097	0.03659114
38	0xbbd2a43e	-0.0064282706
39	0x3d5d920d	0.054094363
40	0xbd99fb78	-0.07518667
41	0xbd87593d	-0.06608818
42	0x3c745610	0.014913097
43	0x3cb7395a	0.022366215
44	0xbac6091a	-0.0015108914
45	0x3ceab846	0.028652322
46	0x3db39ec0	0.087705135
47	0x3c7e443e	0.0155192
48	0xbc6208aa	-0.013796011
49	0xbc04c061	-0.008102507
50	0xbcdd0d9f	-0.026984034
51	0xbbf8ae70	-0.007589154
52	0xbc421cb0	-0.01184766
53	0xbd279aa7	-0.040918972
54	0x3c006219	0.007835888
55	0xbc6047af	-0.013688966
56	0xbce3863d	-0.02777397
57	0xbc3644b1	-0.011124776
58	0xbce2b468	-0.027673915
59	0xbcf87b86	-0.030332338
60	0xb971b9a3	-0.00023052706
61	0x3d87f6fe	0.06638907
62	0xbc84214c	-0.016129158
63	0xbbee58a0	-0.0072737485

weight f4 [64]
0	0x3e193ee8	0.14965403
1	0x3f2f14be	0.68391025
2	0x3eba4d51	0.36387113
3	0x3f2fb2b0	0.6863203
4	0x3f03a53c	0.51424
5	0x3f324b91	0.69646555
6	0x3f379c98	0.7172332
7	0x3e7cc0f4	0.24682981
8	0x3e790cea	0.24321333
9	0x3f746137	0.9546084
10	0x3ef3c431	0.4761062
11	0x3f1d94ad	0.61554986
12	0x3f6bfcea	0.9218279
13	0x3f3a1a78	0.7269664
14	0x3f2d87ae	0.67785156
15	0x3f45e8e4	0.7730849
16	0x3e264b9a	0.16239777
17	0x3f2e5c22	0.68109334
18	0x3f4ac228	0.7920251
19	0x3f2386f8	0.6387782
20	0x3f39dceb	0.7260272
21	0x3f648c58	0.8927665
22	0x3f1e947d	0.61945325
23	0x3f1630fa	0.5866848
24	0x3f52b863	0.823126
25	0x3f1083d5	0.5645116
26	0x3e6821f5	0.22669204
27	0x3eb14a12	0.34626824
28	0x3efc0859	0.4922512
29	0x3f1f64e1	0.62263304
30	0x3f19b131	0.60036
31	0x3e85b702	0.26116186
32	0x3f7a0d09	0.9767614
33	0x3e4637ae	0.19357178
34	0x3f2b626d	0.6694706
35	0x3f3a111d	0.7268236
36	0x3e9099d3	0.2824236
37	0x3ef74524	0.48294938
38	0x3eaf5756	0.3424632
39	0x3e7789e0	0.24173689
40	0x3f524e92	0.8215114
41	0x3eec09bd	0.4610118
42	0x3f042064	0.51611924
43	0x3f219c4f	0.63129133
44	0x3f09c44f	0.5381517
45	0x3f2d7257	0.67752594
46	0x3f4ca4b3	0.7993881
47	0x3eba367f	0.36369702
48	0x3f347c79	0.7050243
49	0x3f28ff32	0.660144
50	0x3e888e60	0.26671124
51	0x3ee1ed01	0.44126132
52	0x3eae8943	0.34089097
53	0x3f0a2d6a	0.53975546
54	0x3f3e3366	0.7429718
55	0x3ed167bd	0.4089946
56	0x3e8bed6b	0.27329573
57	0x3f6dbb18	0.9286361
58	0x3e53d604	0.20687109
59	0x3f5e46dc	0.8682687
60	0x3e5f1783	0.21786313
61	0x3ea2198a	0.3166011
62	0x3f56b062	0.8386289
63	0x3e54ca4b	0.20780294

bias f4 [64]
0	0x3c08e561	0.008355469
1	0xbd6a2bac	-0.057170555
2	0x3c02223c	0.007942732
3	0xbe2117f4	-0.15731794
4	0xbd942c50	-0.072350144
5	0xbde87932	-0.11351241
6	0xbe4ce26e	-0.20008251
7	0xbb5233ff	-0.003207445
8	0xbda812db	-0.082067214
9	0xbd898d6a	-0.06716426
10	0xbe01d3f8	-0.12678516
11	0xbd9dced8	-0.07705468
12	0xbc014981	-0.00789106
13	0xbe15c061	-0.14624168
14	0xbd72e313	-0.059298586
15	0xbe1998fc	-0.14999765
16	0x3d1f8fea	0.038955607
17	0xbd2e22b4	-0.042513564
18	0xbe04633f	-0.12928484
19	0x3c3e5961	0.011617989
20	0xbd876eea	-0.06612952
21	0xbd8b519e	-0.068026766
22	0xbe530bc0	-0.20609951
23	0xbdd1c5af	-0.10242783
24	0xbe1ca4e9	-0.15297283
25	0x3d568adb	0.052378517
26	0xbdeab64c	-0.114605516
27	0xbcf4532e	-0.02982482
28	0xbd0350f9	-0.032059643
29	0xbaa0ef4e	-0.001227835
30	0xbd93b3c0	-0.07212019
31	0xbd18dbd3	-0.037319016
32	0xbda9d002	-0.082916275
33	0xbd4ef626	-0.050527714
34	0xbdf4ecc4	-0.11959222
35	0x3d902c6e	0.07039724
36	0xbe05ef64	-0.13079602
37	0xbbd41f48	-0.0064734556
38	0xbc7ee148	-0.015556641
39	0xbdd02ada	-0.10164423
40	0xbdff5582	-0.12467481
41	0xbc81d7a7	-0.015849901
42	0xbc23fc35	-0.010008861
43	0xbc7c9653	-0.015416699
44	0xbe3b5bbd	-0.18296714
45	0xbca0b561	-0.019617738
46	0xbd954f8f	-0.07290565
47	0xbdba238e	-0.09088813
48	0xbd5078bd	-0.050896395
49	0xbdb3e84a	-0.0878454
50	0xbd96e5c2	-0.073680416
51	0xbe021453	-0.12703066
52	0xbcc7d135	-0.02439175
53	0xbd8f5ab6	-0.069997236
54	0xbe49537c	-0.19660753
55	0xbdf449e3	-0.11928155
56	0xb917f997	-0.00014493462
57	0x3ba07b28	0.004897494
58	0x3c010d85	0.007876758
59	0xbd9258f9	-0.071458764
60	0x3cf69880	0.030102015
61	0xbdde6635	-0.10859338
62	0xbe6c8275	-0.2309664
63	0xbdcb7736	-0.09934847

running_mean f4 [64]
0	0xbf4e3272	-0.80545723
1	0xbef6a71f	-0.48174378
2	0xbe517c01	-0.2045746
3	0xbe48302c	-0.19549626
4	0x3e3d44b7	0.18483244
5	0x3e9cc5fc	0.306198
6	0x3eae5a6e	0.34053367
7	0xbf0c8645	-0.5489238
8	0xbe07e7c3	-0.13272004
9	0x3d8ccbb1	0.068747886
10	0x3db77d5a	0.08959456
11	0x3d71e4fe	0.059056275
12	0xbf8fbff5	-1.1230456
13	0x3f0e415f	0.555685
14	0x3f10e440	0.5659828
15	0xbe7e0245	-0.24805553
16	0x3ef307f0	0.47466993
17	0xbf21bce7	-0.6317887
18	0x3e8a1e7c	0.26976383
19	0xbd2e8901	-0.042611126
20	0xbe8dd5ce	-0.27702183
21	0xbea9a6a5	-0.33134952
22	0x3e8981bd	0.26856795
23	0x3e25bae3	0.16184573
24	0x3f37c09c	0.71778274
25	0xbf188086	-0.5957111
26	0xbe9dbda9	-0.30808762
27	0xbeeb926e	-0.46010154
28	0x3e81deb8	0.25365233
29	0xbf0c9f14	-0.54930234
30	0xbeeebf10	-0.46630144
31	0xbeaa1a4b	-0.33223185
32	0xbf8eee9e	-1.116657
33	0xbe3d7b0b	-0.18503968
34	0x3e0202d7	0.12696396
35	0x3f5ce0d3	0.86280555
36	0xbed203f3	-0.41018638
37	0x3d84b1dc	0.064792365
38	0x3e773108	0.24139798
39	0xbe876ef4	-0.26451838
40	0xbea78814	-0.32721007
41	0x3e233119	0.15936698
42	0xbedc40ac	-0.4301809
43	0xbeb5cac8	-0.35506272
44	0xbea79395	-0.32729784
45	0x3db5fad0	0.08885729
46	0xbf001a12	-0.5003978
47	0xbe1c137a	-0.15241805
48	0xbf1db2a3	-0.61600703
49	0xbca9781e	-0.02068716
50	0xbefebd11	-0.4975362
51	0xbe10f31b	-0.14155237
52	0x3dfa6a36	0.122272894
53	0xbf4219f1	-0.75820833
54	0xbe55c0a3	-0.20874266
55	0xbed7fe44	-0.42186177
56	0x3d819373	0.06326952
57	0x3e88e9cb	0.2674087
58	0xbcb7b73d	-0.022426242
59	0xbe6d4f95	-0.2317489
60	0x3e1ac24c	0.15113181
61	0xbe4f25e2	-0.20229295
62	0x3ecfecf0	0.40610456
63	0x3edb78a6	0.42865485

running_var f4 [64]
0	0x3f20c3ec	0.62798953
1	0x3f009a9c	0.50235915
2	0x3ef68e73	0.48155555
3	0x3f1a0f9c	0.6018007
4	0x3e89df97	0.26928398
5	0x3ef62c3c	0.48080623
6	0x3e7d815c	0.24756378
7	0x3f09c413	0.5381481
8	0x3ea69522	0.32535654
9	0x3eb53537	0.35392162
10	0x3e688535	0.22707064
11	0x3eb4b095	0.3529097
12	0x3f4e9b26	0.8070549
13	0x3e57de3d	0.21080871
14	0x3ec3f38a	0.38271743
15	0x3f23248b	0.63727635
16	0x3f5686cb	0.8379943
17	0x3f59d426	0.8508934
18	0x3f0bbd38	0.545856
19	0x3e54ea9c	0.20792621
20	0x3e86bbe5	0.26315227
21	0x3ee89606	0.4542696
22	0x3ef9859f	0.48734757
23	0x3f0616bb	0.52378434
24	0x3f57a3c3	0.84234256
25	0x3ecd72fc	0.4012679
26	0x3ed03b5b	0.40670285
27	0x3ee7e702	0.45293432
28	0x3ea01f68	0.3127396
29	0x3f06a462	0.5259458
30	0x3f1c076c	0.60948825
31	0x3ecab42a	0.3959058
32	0x3f195d04	0.59907556
33	0x3ed9e7d1	0.42559674
34	0x3ecfbb1f	0.4057245
35	0x3f45d6bf	0.772808
36	0x3f11f503	0.57014483
37	0x3ea43979	0.32075098
38	0x3ed26221	0.4109049
39	0x3e61ed0b	0.22063081
40	0x3eeb2a47	0.45930693
41	0x3ebfc198	0.37452388
42	0x3f8f6abc	1.1204448
43	0x3efb1354	0.49038184
44	0x3e85ec22	0.26156718
45	0x3ecf486f	0.4048495
46	0x3ea8fa53	0.33003482
47	0x3ec664c3	0.3874875
48	0x3ee0a95b	0.43879208
49	0x3eb97ac2	0.3622647
50	0x3edd5ddf	0.4323568
51	0x3e5f963d	0.21834655
52	0x3e7e8dad	0.24858733
53	0x3f0d85ba	0.55282176
54	0x3f03ae3e	0.5143775
55	0x3eb8fbda	0.36129647
56	0x3eae571c	0.34050834
57	0x3eb7e957	0.35920212
58	0x3e93c823	0.2886363
59	0x3efd883b	0.49517998
60	0x3f0224ef	0.50837606
61	0x3ebb84a6	0.3662464
62	0x3f20b47b	0.6277539
63	0x3eddb10c	0.4329914

weight f4 [64, 64, 3, 3]
0	0x3df47077	0.119355135
1	0x3e1613e5	0.14656027
2	0x3cb28559	0.0217921
3	0x3e0059c3	0.12534241
4	0x3e3db1cf	0.1852486
5	0x3e0e72b8	0.13910949
6	0x3da92cfd	0.08260534
7	0x3df4149f	0.11917996
8	0x3d93317b	0.07187172
9	0xbc168eeb	-0.009189348
10	0xbbfe452f	-0.007759712
11	0xbc0251ef	-0.007954105
12	0x3d70d257	0.058794346
13	0x3c884da9	0.016638594
14	0x3cbb5a95	0.022870341
15	0x3d555752	0.05208523
16	0x3d211841	0.03932977
17	0x3c8d106a	0.01721974
18	0x3d9622a1	0.07330824
19	0x3d781151	0.06056339
20	0x3ceeb7b3	0.029140329
21	0x3dcb9741	0.09940959
22	0x3dfb5973	0.122729205
23	0x3d8fc0a9	0.07019169
24	0x3da0b501	0.07847024
25	0x3d9bae76	0.07601635
26	0x3d0082d7	0.03137478
27	0xbb0ba784	-0.0021309564
28	0xbd212cf4	-0.03934951
29	0x3c679764	0.014135215
30	0x3c32ee6e	0.010921104
31	0xbc17670a	-0.009240875
32	0xbced6c19	-0.028982209
33	0xbd17d02f	-0.037063774
34	0x3d8647d9	0.065566726
35	0xbd05b32e	-0.032641582
36	0x3bd0a531	0.0063673486
37	0x3cc22e72	0.023703787
38	0x3d582595	0.052770216
39	0xbd572617	-0.05252656
40	0xbd0e2159	-0.03469977
41	0xbd0b0ca6	-0.03394761
42	0x3beadb62	0.0071672658
43	0xbc22a885	-0.0099278735
44	0xbd8ef78f	-0.06980812
45	0x3d9cb83d	0.07652328
46	0xbcd904f8	-0.026491627
47	0xba79a841	-0.0009523668
48	0xbcaaad86	-0.020834696
49	0xbc874b2c	-0.016515337
50	0x3d117fd8	0.035522312
51	0xbc8fca3c	-0.017552488
52	0xbc573908	-0.013136156
53	0x3c80d2b0	0.015725464
54	0x3d62d4b6	0.05537864
55	0xbad52652	-0.0016262031
56	0x3ccaa23d	0.024735564
57	0x3d4f2e06	0.050581
58	0xbb6d1106	-0.0036173477
59	0x3ceb7f2f	0.02874717
60	0x3d34e24b	0.044161122
61	0x3d613677	0.054983582
62	0x3c636a59	0.013880336
63	0xb9d59b75	-0.0004074235
64	0xbbddcd8b	-0.0067688874
65	0x3d22e044	0.039764658
66	0xbd0a4e58	-0.03376612
67	0x3dc7eff2	0.09762563
68	0x3d6a6803	0.0572281
69	0xbd422a05	-0.047403354
70	0xbd6f779f	-0.05846369
71	0xbddb5203	-0.10709002
72	0xbbe69a73	-0.0070374548
73	0xbcb4bf83	-0.022063976
74	0xbcfa04e8	-0.030519918
75	0x3db74971	0.08949555
76	0x3d289f9a	0.041167833
77	0x3cf36c5b	0.029714754
78	0x3d1d7fdd	0.038452018
79	0xbd85f194	-0.06540218
80	0xba240000	-0.00062561035
81	0xbb63988c	-0.0034728376
82	0x3bac2f7e	0.005254685
83	0x3c5f50a1	0.013630063
84	0x3d4878c4	0.048943296
85	0x3c16a286	0.009194022
86	0x3c90e452	0.017686997
87	0x3cd1998a	0.025585908
88	0xbc3020a8	-0.010749973
89	0x3c5b6bc6	0.013392394
90	0xbb3ff77a	-0.0029291795
91	0x3d934f3d	0.07192848
92	0x3dae171e	0.08500503
93	0xbc5f5a50	-0.013632372
94	0x3c8247e8	0.015903428
95	0x3d5d25f4	0.053991273
96	0xbceb8013	-0.028747594
97	0x3d06082b	0.032722633
98	0x3d73e712	0.059546538
99	0xbcf6f202	-0.030144695
100	0xbd83a610	-0.06428158
101	0x3d2e51c5	0.04255845
102	0xbc9c927b	-0.019112816
103	0x3cf9b0a2	0.030479733
104	0x3b9cdd47	0.0047871205
105	0x3cf48127	0.02984674
106	0xbc16ad83	-0.009196642
107	0x3d42a363	0.0475191
108	0xbc8be1b4	-0.017075397
109	0xbbf2c720	-0.0074089915
110	0xbd187e61	-0.0372299
111	0xbd8716b3	-0.065961264
112	0x3ceaf5d6	0.028681677
113	0xbc488524	-0.012238774
114	0xbbc85c2b	-0.006114503
115	0x3d5194de	0.05116736
116	0x3d2df996	0.04247435
117	0x3d1b1f78	0.037871808
118	0xbb5c03bf	-0.0033571569
119	0x3d0fb51d	0.035084832
120	0x3c950ebf	0.018195508
121	0x3c48e3f6	0.012261381
122	0x3cd15f97	0.025558276
123	0xbba3a6ec	-0.004994264
124	0x3b32dc82	0.0027292077
125	0x3d2718d3	0.04079516
126	0xbc702e99	-0.014659547
127	0xbc1560c1	-0.009117306
128	0x3d75d01d	0.060012925
129	0x3a7fb826	0.0009754918
130	0xbcf8f885	-0.03039194
131	0x3d4c4fa0	0.049880624
132	0x3d091a3b	0.03347228
133	0x3ceb649d	0.0287345
134	0x3b8fd2f2	0.0043891603
135	0x3cab2752	0.020892773
136	0xbd44a711	-0.04801089
137	0xbd6cecd8	-0.05784306
138	0x3d246ee9	0.040144835
139	0x3d9ea969	0.07747156
140	0x3c1e3200	0.009655476
141	0x3d0a9e2d	0.033842254
142	0x3d011e94	0.031523302
143	0xbd1c7c76	-0.038204633
144	0xbad57c81	-0.0016287715
145	0xbd23b8df	-0.03997123
146	0x3ce9eb09	0.028554456
147	0x3b0cd6bf	0.0021490303
148	0xbdc61cd6	-0.09673469
149	0xbc2b9fcf	-0.010475113
150	0xbd0624f3	-0.03275008
151	0xbd34ba32	-0.044122882
152	0xbd823eee	-0.06359659
153	0xbb798d4e	-0.003807861
154	0x3b113d90	0.0022161938
155	0xbc87902e	-0.016548242
156	0xbb1354f2	-0.0022481051
157	0xbd5ace2e	-0.053419285
158	0xbc1f9b86	-0.0097416695
159	0x3d22e75d	0.039771426
160	0xbd37d9b8	-0.044885367
161	0xbacc4747	-0.0015585207
162	0x3d34a1f9	0.04409978
163	0x3c8842bd	0.016633386
164	0x3cfd2398	0.030900761
165	0x3bffa5de	0.0078017553
166	0x3cc7a4bc	0.024370544
167	0x3d365ff8	0.044525117
168	0x3cfa39c2	0.03054512
169	0x3a86b9e4	0.0010278788
170	0x3c7ef90d	0.015562308
171	0x3d6b1f89	0.05740312
172	0x3d1a28ff	0.037636753
173	0xbc47efb3	-0.012203145
174	0xbd221727	-0.03957286
175	0xbda33cd7	-0.07970589
176	0x3b31a765	0.0027107832
177	0xbc952f64	-0.018211074
178	0xbd1e2831	-0.03861255
179	0x3ce5bb97	0.028043551
180	0x3d42c77d	0.047553528
181	0xbd18ec24	-0.037334576
182	0xbc08acda	-0.008341992
183	0x3b00ad8a	0.0019634687
184	0xbbde7f11	-0.00679005
185	0xbdbd9fba	-0.09258981
186	0x3d5bb3b3	0.05363817
187	0x3caa242b	0.0207692
188	0x3c068110	0.008209482
189	0xbb167886	-0.002296002
190	0x3c7a576a	0.01527963
191	0x3d128117	0.03576764
192	0x3cbde68e	0.023181226
193	0x3c32676f	0.010888918
194	0x3cd868ac	0.026417099
195	0x3b39a5fb	0.0028327692
196	0xbc3af014	-0.011409778
197	0xbd3a170d	-0.04543214
198	0xbc6c0698	-0.014405869
199	0x3a50514a	0.00079466833
200	0x3c0728d7	0.008249483
201	0x3c9a561c	0.018839888
202	0x3b02ba10	0.0019947328
203	0x3b1f9a7a	0.002435355
204	0x3cd534a8	0.026026085
205	0x3d8353c1	0.06412459
206	0x3d021c8f	0.031765517
207	0xbcf0c236	-0.029389482
208	0xbc309b25	-0.010779177
209	0x3d827033	0.063690566
210	0xbbaa6ef0	-0.005201213
211	0x3cbb9b35	0.022901157
212	0xbc6b3a23	-0.014357123
213	0x3cb789ee	0.022404637
214	0xbbfd61c0	-0.0077326
215	0x3d16e140	0.03683591
216	0x3d172c94	0.036907747
217	0xbcbbd184	-0.022927053
218	0x3beddf7a	0.0072593065
219	0x3c1713c5	0.009221022
220	0x3c6aba05	0.014326577
221	0x3b597650	0.0033182092
222	0xbd395484	-0.045246616
223	0x3cd9e5ae	0.026598778
224	0x3b909162	0.004411862
225	0xbd890644	-0.06690648
226	0xbc45dbeb	-0.012076358
227	0x3c3f2b2f	0.011668011
228	0x3d28e575	0.041234452
229	0x3d75d534	0.06001778
230	0xba7646b3	-0.000939469
231	0x3d04e42b	0.03244416
232	0x3d12ce8d	0.035841513
233	0xbb0be44b	-0.002134579
234	0x3bd741a1	0.006569103
235	0x3d6756a2	0.056479104
236	0x3d970ced	0.07375512
237	0x3db86344	0.090033084
238	0x3e588765	0.21145399
239	0x3d376943	0.04477812
240	0x3c47d034	0.012195636
241	0x3c4f3da1	0.012648971
242	0x3c04c875	0.008104433
243	0x3d3cb882	0.046074398
244	0x3d88f305	0.06686977
245	0x3d6f48a2	0.058418877
246	0x3d926cfa	0.07149692
247	0x3db8ca8d	0.090230085
248	0x3d0ade3c	0.033903345
249	0x3c40abb4	0.011759687
250	0x3cbe95f7	0.023264868
251	0x3ca1b4dd	0.019739563
252	0x3de81064	0.11331251
253	0x3d5a27a3	0.053260457
254	0xbcb33fff	-0.021881102
255	0xbcaad847	-0.020855082

bias f4 [64]
0	0x3cbd809c	0.023132615
1	0xbc3c5a08	-0.0114960745
2	0xbd1bb0a6	-0.038010262
3	0xbd377730	-0.0447914
4	0xbc242c1d	-0.010020283
5	0xbb9b6e81	-0.0047433977
6	0xbc912ff4	-0.017723061
7	0xbb0ee1ae	-0.0021801996
8	0xbb8b2dd9	-0.004247409
9	0x3cfa770a	0.03057434
10	0xbc3eae15	-0.011638184
11	0xbcc610be	-0.024177905
12	0x3b0243e4	0.0019876892
13	0x3d1d1e93	0.038359236
14	0xbc97d8ee	-0.018536057
15	0x3c6b6cb6	0.01436918
16	0xbc40c187	-0.0117648905
17	0x3c83e750	0.01610151
18	0xbd081677	-0.03322455
19	0xbc375bfc	-0.011191364
20	0xbd030947	-0.03199127
21	0x3cc765a5	0.02434046
22	0x3c43c474	0.011948694
23	0xbc370e71	-0.011172877
24	0x3cba4122	0.022736136
25	0xbd27e7d0	-0.040992558
26	0xbd048968	-0.032357603
27	0xbcd127fa	-0.025531758
28	0xbcdc488d	-0.026890064
29	0xbd0982c7	-0.033571985
30	0x3d1d8ab2	0.03846235
31	0x3ce8ebfb	0.028432837
32	0x3d215197	0.03938445
33	0x3ce99297	0.028512282
34	0x3d436d0e	0.047711425
35	0x3d061457	0.03273424
36	0x3d29324a	0.041307725
37	0x3c55e8bd	0.013055977
38	0x3c18db88	0.009329684
39	0x3d1fc8f5	0.039010007
40	0x3bf19d7a	0.007373509
41	0xbb34ff3d	-0.0027617954
42	0xbd105af1	-0.03524298
43	0x3cf10e4e	0.029425766
44	0x3cd2126c	0.02564355
45	0xbd191c73	-0.037380647
46	0x3c1210e0	0.008915156
47	0xbb41e3ba	-0.0029585198
48	0xbce9fd66	-0.028563213
49	0x3c29b039	0.010356956
50	0xbd251af9	-0.040308926
51	0xbca37c0e	-0.019956615
52	0xbd133ff2	-0.035949655
53	0xbcb090c7	-0.02155341
54	0x3cc95b30	0.024579614
55	0x3d0f2690	0.034948885
56	0x3cf5974e	0.029979374
57	0xbd06ef7b	-0.03294323
58	0xbba34a30	-0.004983209
59	0x3966151c	0.00021942373
60	0x3ca3c51e	0.019991454
61	0x3b3bc2a7	0.0028649957
62	0x3cf808fc	0.030277722
63	0x3c89f631	0.016841026

weight f4 [64]
0	0x3f0bcc96	0.5460905
1	0x3ec7e075	0.39038435
2	0x3e2c0e3b	0.16802303
3	0x3eb118a6	0.34589118
4	0x3f2f1147	0.6838574
5	0x3ead614d	0.33863297
6	0x3e631260	0.22174978
7	0x3f436dda	0.76339495
8	0x3f58f9b2	0.84756005
9	0x3f146337	0.5796389
10	0x3e93f247	0.2889578
11	0x3f1d92d1	0.6155215
12	0x3f09825d	0.53714544
13	0x3ebf4f91	0.37365392
14	0x3ed4da52	0.41572815
15	0x3f581e64	0.8442137
16	0x3f2128b1	0.62952715
17	0x3f024a88	0.50894976
18	0x3f3883ed	0.720763
19	0x3e4cea6a	0.20011297
20	0x3e951f49	0.2912543
21	0x3ea08d96	0.31358021
22	0x3ee1367e	0.43986887
23	0x3f4db948	0.8036084
24	0x3e5ef3dd	0.21772714
25	0x3e8e7a22	0.27827555
26	0x3e91fbb4	0.28512347
27	0x3e654a67	0.22391663
28	0x3eb4ea0f	0.35334823
29	0x3f451816	0.7698988
30	0x3f5f6526	0.87263715
31	0x3f137e8f	0.5761499
32	0x3e7144c0	0.23561382
33	0x3edc5357	0.43032333
34	0x3ec9957b	0.39371857
35	0x3f35ce95	0.71018344
36	0x3f2c7b55	0.6737569
37	0x3f4c8351	0.7988787
38	0x3f4443b1	0.7666579
39	0x3ecbfa59	0.39839438
40	0x3eb04ec8	0.34435105
41	0x3f485620	0.78256416
42	0x3f705877	0.93884987
43	0x3f653325	0.89531165
44	0x3e9a2b91	0.30111364
45	0x3e630b9c	0.22172397
46	0x3f57d1c2	0.8430444
47	0x3ebc15b8	0.3673532
48	0x3ec349d2	0.38142258
49	0x3f15fbd9	0.58587414
50	0x3f5b2f68	0.8561921
51	0x3f2f18d8	0.68397284
52	0x3f0cadb1	0.5495253
53	0x3ea5ee69	0.32408455
54	0x3e8d0a86	0.2754709
55	0x3e55f3e3	0.20893817
56	0x3f3a4d2f	0.7277402
57	0x3f6f40b8	0.9345813
58	0x3f339b46	0.70158803
59	0x3f5ca40f	0.86187834
60	0x3ef62a65	0.4807922
61	0x3ee4f5ef	0.44718882
62	0x3f6e9d06	0.9320835
63	0x3ef0e382	0.47048575

bias f4 [64]
0	0xbde7617b	-0.1129789
1	0x3d672406	0.05643084
2	0xbcf796da	-0.030223299
3	0xbdd3a287	-0.10333734
4	0xbdf6352e	-0.12021862
5	0xbdaf8919	-0.08571071
6	0xbdab6762	-0.08369328
7	0xbcd51ea1	-0.026015582
8	0xbd6aae5b	-0.057295185
9	0xbdf52486	-0.11969857
10	0xbd83c819	-0.0643465
11	0xbe0e15b6	-0.1387547
12	0xbd023698	-0.031790346
13	0xbdd13c9f	-0.10216641
14	0xbe245257	-0.16047035
15	0xbe1176a8	-0.1420542
16	0xbd87832d	-0.06616817
17	0xbe0be269	-0.13660587
18	0xbe0ccd44	-0.13750178
19	0xbd5492db	-0.051897865
20	0xbddf9f62	-0.10919072
21	0xbe03d561	-0.12874366
22	0xbdc74bcf	-0.09731256
23	0xbdc31c8c	-0.09526929
24	0xbdb17fce	-0.08666955
25	0xbd76aaca	-0.06022147
26	0xbd17ef0a	-0.0370932
27	0xbd054eb4	-0.03254576
28	0xbd9f94dc	-0.077920645
29	0xbe123c82	-0.14280894
30	0xbe121736	-0.14266667
31	0xbd1c974c	-0.038230225
32	0xbd8dc589	-0.069224425
33	0xbdd1e0e6	-0.10247974
34	0xbddaedc5	-0.10689882
35	0xbe1d2330	-0.15345454
36	0xbdea4a50	-0.11439955
37	0xbdf4f494	-0.11960712
38	0xbdbccdf7	-0.09218972
39	0xbd49115f	-0.049088832
40	0xbe1dccdd	-0.1541018
41	0xbdcc1cca	-0.099664286
42	0xbe48d4d6	-0.1961244
43	0xbda4e9c3	-0.08052399
44	0xbdc0230b	-0.09381684
45	0xbdbfcbab	-0.093650185
46	0xbe0ee4e3	-0.13954501
47	0xbdb82c86	-0.08992867
48	0xbdc4f5d1	-0.09617198
49	0xbcd329ce	-0.02577677
50	0xbd87beb8	-0.066281736
51	0xbd372d11	-0.044720713
52	0xbd909372	-0.07059373
53	0xbd8ffaa1	-0.070302255
54	0xbdbe0354	-0.092779785
55	0xbd56a3ce	-0.05240231
56	0xbe377c1c	-0.17918438
57	0xbddaa445	-0.10675863
58	0xbdb993f5	-0.09061424
59	0xbd9a8b50	-0.07546103
60	0xbc91f203	-0.017815595
61	0xbd959fce	-0.07305871
62	0xbe2c02e4	-0.16797978
63	0xbdec1c57	-0.11528843

running_mean f4 [64]
0	0x3fd99e04	1.7001348
1	0x3f546e1e	0.82980525
2	0x3e111f6e	0.14172146
3	0xbe501ceb	-0.20323531
4	0xbf1c5559	-0.6106773
5	0xbcccf045	-0.025016913
6	0x3e5621b0	0.20911288
7	0x3f38b4e9	0.72151047
8	0xbe215787	-0.15756045
9	0x3f51d628	0.819674
10	0xbfafab14	-1.3724084
11	0xbf0f3e07	-0.5595402
12	0x3e5a4486	0.21315202
13	0x3f151620	0.58236885
14	0xbf143d7f	-0.57906336
15	0xbe6203aa	-0.2207171
16	0x3c8a2d00	0.01686716
17	0x3f553f7c	0.83299994
18	0xbfad60e7	-1.3545197
19	0xbe52274f	-0.20522808
20	0xbe2ab7dc	-0.166717
21	0xbdb1c2e2	-0.08679749
22	0xbe1d6f73	-0.15374546
23	0x3f75cd96	0.96016824
24	0x3d785682	0.060629375
25	0x3ec5cc0c	0.38632238
26	0xbe3a535f	-0.18195866
27	0xbe93b4e8	-0.28848958
28	0xbe1a503b	-0.15069668
29	0xbf0fc79a	-0.5616394
30	0x3e15d5ae	0.14632294
31	0x3ecb50e2	0.39710146
32	0xbec4fb94	-0.3847319
33	0x3d780705	0.06055357
34	0x3db96025	0.09051541
35	0xbea9b6ab	-0.33147177
36	0xbf3f9d4f	-0.7484941
37	0xbe75ecbe	-0.24016091
38	0x3f72ddaa	0.9486948
39	0xbfc62cf6	-1.5482471
40	0xbe2834ae	-0.16426346
41	0xbf37f460	-0.7185726
42	0xbe8fcaf4	-0.28084528
43	0x3de6f0ad	0.11276374
44	0xbda2a610	-0.0794183
45	0xbe6f7b85	-0.23386963
46	0xbeb38397	-0.35061333
47	0x3df0cf2d	0.11758266
48	0xbf019a34	-0.5062592
49	0x3f471768	0.7777009
50	0x3f974265	1.1817137
51	0x3df44368	0.11926919
52	0xbffae8a9	-1.9602252
53	0x3e20d4a0	0.1570611
54	0x3e618f19	0.22027244
55	0xbda84422	-0.0821612
56	0xbcafb6d6	-0.021449488
57	0xbe05ae13	-0.13054685
58	0x3ed90b9e	0.42391676
59	0xc015bfcd	-2.3398316
60	0xbf96e5f4	-1.1788926
61	0x3e5563aa	0.208388
62	0xbefd2d50	-0.49448633
63	0xbe772edb	-0.24138968

running_var f4 [64]
0	0x3fd887ab	1.6916403
1	0x3fa27394	1.2691522
2	0x3f058daa	0.5216929
3	0x3f9a89ad	1.2073265
4	0x3fa43d16	1.2831142
5	0x3f71d7d9	0.9446998
6	0x3f8eeacb	1.1165403
7	0x3f8d1b0a	1.1023877
8	0x3fb7c38e	1.4356554
9	0x3f7f1242	0.99637234
10	0x3fa52de5	1.2904631
11	0x3fc319f9	1.5242301
12	0x3f81d80f	1.0144061
13	0x3f8c1bf4	1.0946031
14	0x3f5a019f	0.85158724
15	0x3f780bf7	0.96893257
16	0x3fa3a93a	1.2786019
17	0x3f7f3702	0.9969331
18	0x3fec1fd5	1.8447214
19	0x3fa7fd94	1.3124261
20	0x3fa68d77	1.3011922
21	0x3f4d82a4	0.80277467
22	0x3f32d055	0.6984914
23	0x3faf9138	1.3716192
24	0x3f2c38e6	0.6727432
25	0x3f58d7f6	0.8470453
26	0x3fc864a0	1.5655708
27	0x3fa23144	1.2671285
28	0x3f8d49f8	1.1038198
29	0x4014573a	2.317824
30	0x3fb8f3aa	1.444936
31	0x3f5ec81d	0.870241
32	0x3f570a77	0.84000343
33	0x3f753b13	0.95793265
34	0x3f245caf	0.64203924
35	0x3fa97740	1.3239517
36	0x3fc950e1	1.5727807
37	0x3f8ba16c	1.0908637
38	0x400e1942	2.2202916
39	0x3f9e0769	1.2346011
40	0x3f56de28	0.83932734
41	0x3fc88b22	1.566746
42	0x3f8075a7	1.0035905
43	0x3fa89918	1.317172
44	0x3f970850	1.1799412
45	0x3f8e425e	1.1114004
46	0x3ff2507c	1.8930812
47	0x3f8a82f0	1.0821209
48	0x3f4d6fa2	0.80248463
49	0x3f7f9a67	0.99844974
50	0x4001095a	2.0161958
51	0x3f3562a1	0.7085362
52	0x3fc3c37b	1.5294031
53	0x3f3838c6	0.7196163
54	0x3f9a38a2	1.2048533
55	0x3fa7486d	1.3068978
56	0x3f42ffb5	0.7617143
57	0x401b9ea1	2.431557
58	0x3f751e61	0.9574948
59	0x4035fcb9	2.84355
60	0x3fb7e7dc	1.4367633
61	0x3f4a210e	0.7895669
62	0x3faa5ddf	1.3309897
63	0x3f8769b6	1.0579135
