results/best_model.pt (torch_old, 473015 bytes, 24 tensors)

weight f4 [64, 1, 3, 3]
-0.03771834 -0.15415148 -0.17067954 -0.15360199 -0.27768493 0.17897475 -0.26369616 0.08501262
0.13119186 -0.18386038 0.113906965 0.081440926 0.08746401 0.20791644 -0.19316901 0.09444292
-0.23925239 0.05652484 -0.1645739 0.17779617 0.05066288 -0.14250207 -0.22981492 0.09470381
0.2813779 0.11134723 -0.041720636 -0.077940546 0.20712864 -0.25542164 0.1105657 -0.16917233
0.16791983 -0.0630868 0.015202592 0.06202082 0.13606398 -0.14652745 0.2732809 -0.2587893
-0.28647107 -0.3342267 0.00080033595 0.08974761 -0.09000612 0.07749671 -0.084936954 -0.3715638
0.16078818 0.18971275 0.24058272 0.22989285 0.07844383 0.22568281 0.25865656 -0.1128149
-0.25265813 -0.19217739 -0.2097832 0.022421515 -0.047474828 0.12199376 0.06987258 -0.20502204
-0.20539619 -0.025741197 0.24129325 -0.11598654 -0.095446065 -0.024166971 -0.07996519 -0.05693404
-0.36101365 0.28362438 0.09757895 -0.20912606 -0.2994398 0.022485783 0.15643518 -0.20257586
-0.11789035 0.041618574 -0.2093789 -0.05616255 -0.30880287 0.33579892 0.08278893 -0.33633393
-0.19611141 0.07086875 0.0012027075 -0.017134633 -0.262717 -0.16702355 0.23001067 -0.25822797
-0.07625509 0.024248362 0.20954871 0.06288204 0.17715257 0.16894959 -0.048234485 -0.18438981
0.22901227 0.30695257 0.13148813 -0.10120326 -0.27493557 -0.38321638 -0.009799467 -0.072124556
-0.06034109 0.0029994508 0.27837154 0.35508457 -0.027533302 -0.20145671 0.16286047 0.02527685
-0.3848696 0.10348184 0.21151184 -0.2680562 -0.016108017 0.085823916 -0.24981864 -0.2702359
0.24564576 -0.07292934 0.27215838 -0.019145487 0.12071482 -0.20161878 -0.08466843 0.09705002
0.10539981 -0.19386591 0.028742993 0.276879 -0.37759933 0.13666046 -0.095731 -0.117252894
0.116166875 -0.33255458 -0.04332175 0.30885142 0.08196113 -0.17449972 -0.13894919 0.2515672
0.056953162 0.19813086 -0.33925006 0.17039958 0.035172645 -0.024632005 0.28739533 0.09486078
0.20927922 0.11790599 0.16763453 0.03893703 -0.1640403 -0.32891703 -0.3123364 -0.1521796
0.13995583 0.104634665 -0.10694782 -0.30174136 0.15240306 0.1822679 0.10359304 0.34835687
-0.150751 -0.12154323 -0.3360047 -0.19143651 -0.29949144 0.2609311 -0.006991757 0.09891887
-0.22691737 0.0008812784 -0.033945225 -0.1953622 0.2749462 -0.2452732 0.0206517 -0.24668469
-0.065502495 -0.10930259 0.12479815 0.16448374 0.03231767 -0.108846396 -0.087893955 0.30157974
-0.043946028 0.18628149 -0.3227354 0.2682706 0.30700174 0.07337094 0.16604458 0.15736587
-0.08355826 -0.0866448 0.10074885 -0.17475137 0.0044184662 0.21238866 -0.31496817 -0.2742416
-0.113227926 0.047619373 -0.121562235 0.07746009 -0.08509235 -0.20459056 -0.048987947 0.24492952
-0.25138316 0.21970484 -0.037712295 0.25235796 -0.37965408 -0.33541614 0.16887833 -0.36463752
-0.27178693 0.22437438 0.18959744 -0.23905344 0.25606552 -0.008321887 0.14441134 -0.12921496
-0.34357122 -0.38260758 -0.14966649 -0.24459343 0.0076699564 -0.09544087 0.047760375 -0.02235714
0.12903632 -0.33929342 0.19383499 -0.22736363 0.15903838 0.22421004 -0.15572786 -0.037785035
00000000: 8c7e 1abd e3d9 1dbe 9ec6 2ebe d749 1dbe
00000010: b82c 8ebe 2845 373e 2f03 87be 191b ae3d
00000020: 2957 063e e545 3cbe 0e48 e93d 80ca a63d
00000030: 5520 b33d 0ce8 543e 19ce 45be 4a6b c13d
00000040: 94fe 74be 9786 673d 0f86 28be 3310 363e
00000050: e183 4f3d 10ec 11be 9a54 6bbe 12f4 c13d
00000060: c410 903e 040a e43d 42e3 2abd 4b9f 9fbd
00000070: 8819 543e a0c6 82be 4570 e23d 833b 2dbe
00000080: 2df3 2b3e a733 81bd 4b14 793c 8b09 7e3d
00000090: 5b54 0b3e 4b0b 16be 79eb 8b3e 0880 84be
000000a0: 56ac 92be c31f abbe a3cd 513a 98cd b73d
000000b0: 2155 b8bd 98b6 9e3d 6df3 adbd 9c3d bebe
000000c0: a8a5 243e 0f44 423e 515b 763e 0869 6b3e
000000d0: 29a7 a03d 6519 673e a26e 843e 800b e7bd
000000e0: 685c 81be 26ca 44be 68d1 56be 53ad b73c
000000f0: f774 42bd ddd7 f93d 5b19 8f3d 4cf1 51be
00000100: 6153 52be 34df d2bc 9415 773e 5a8a edbd
00000110: 3a79 c3bd d0f9 c5bc cac4 a3bd ab33 69bd
00000120: c8d6 b8be 3737 913e 79d7 c73d 2425 56be
00000130: 2c50 99be 1b34 b83c 8b30 203e 0c70 4fbe
00000140: 7f70 f1bd 3d78 2a3d 6c67 56be b40a 66bd
00000150: 691b 9ebe d6ed ab3e 3e8d a93d f633 acbe
00000160: 6ed1 48be a323 913d 2ba4 9d3a ee5d 8cbc
00000170: d882 86be 3908 2bbe eb87 6b3e 7536 84be
00000180: a12b 9cbd 80a4 c63c f093 563e 4dc8 803d
00000190: 7c67 353e 1f01 2d3e 8691 45bd afd0 3cbe
000001a0: 3182 6a3e e328 9d3e d3a4 063e a843 cfbd
000001b0: 5bc4 8cbe f034 c4be f28d 20bc 0ab6 93bd
000001c0: 3828 77bd 6f92 443b b786 8e3e a5cd b53e
000001d0: 858d e1bc ab4a 4ebe e5c4 263e 6611 cf3c
000001e0: a10d c5be 49ee d33d 8f96 583e aa3e 89be
000001f0: f6f4 83bc 73c4 af3d 75d0 7fbe 5c5c 8abe
00000200: 908a 7b3e fa5b 95bd 5858 8b3e ffd6 9cbc
00000210: 5539 f73d 2775 4ebe a466 adbd 29c2 c63d
00000220: dbdb d73d c984 46be 6d76 eb3c 16c3 8d3e
00000230: b354 c1be b8f0 0b3e 9d0e c4bd 4922 f0bd
00000240: e6e8 ed3d 9844 aabe 2672 31bd c621 9e3e
00000250: 3ddb a73d 0eb0 32be b248 0ebe 6bcd 803e
00000260: b847 693d d1e2 4a3e 2fb2 adbe 3a7d 2e3e
00000270: 3111 103d 0fc9 c9bc 7b25 933e 5e46 c23d
00000280: 4b4d 563e b278 f13d 63a8 2b3e 6f7c 1f3d
00000290: 2efa 27be d067 a8be 8eea 9fbe f8d4 1bbe
000002a0: 9550 0f3e b34a d63d 7507 dbbd d87d 9abe
000002b0: 8c0f 1c3e 70a4 3a3e 9628 d43d d55b b23e
000002c0: 785e 1abe a8eb f8bd cf08 acbe ef07 44be
000002d0: f156 99be c398 853e 1c1b e5bb fa95 ca3d
000002e0: 075d 68be 9805 673a 260a 0bbd 070d 48be
000002f0: c0c5 8c3e e628 7bbe c12d a93c e99a 7cbe
00000300: 2c26 86bd 09da dfbd 2c96 ff3d 6d6e 283e
00000310: 885f 043d dcea debd bf01 b4bd a968 9a3e
00000320: c000 34bd 93c0 3e3e 933d a5be c45a 893e
00000330: 552f 9d3e 8143 963d 9707 2a3e 8524 213e
00000340: 9820 abbd d472 b1bd 6a55 ce3d 06f2 32be
00000350: c8c8 903b 6a7c 593e 8243 a1be 6569 8cbe
00000360: 0be4 e7bd 880c 433d 9ff5 f8bd 65a3 9e3d
00000370: e644 aebd 3080 51be 96a7 48bd cece 7a3e
00000380: 4bb5 80be 4efa 603e 3578 1abd 1035 813e
00000390: 0562 c2be aabb abbe 71ee 2c3e c5b1 babe
000003a0: a827 8bbe 66c2 653e d525 423e 6dca 74be
000003b0: 051b 833e 8658 08bc 91e0 133e ed50 04be
000003c0: 91e8 afbe 24e5 c3be 2c42 19be b376 7abe
000003d0: 4254 fb3b 8176 c3bd 62a0 433d 5226 b7bc
000003e0: 1922 043e deb7 adbe ae7c 463e 03d2 68be
000003f0: f5da 223e 5197 653e 2077 1fbe 7bc4 1abd

bias f4 [64]
-0.16317315 0.3114227 -0.29310328 -0.074341565 0.082878254 0.24292244 -0.24987179 -0.29636544
0.1582205 0.29449156 0.23061775 0.14534557 -0.27429017 0.18363205 -0.09380167 0.06409792
-0.07775183 0.3630997 -0.058740117 -0.29981247 0.1712113 -0.00055550697 -0.18904793 -0.12018155
-0.24116611 0.14076293 0.06655319 -0.046388704 0.016334035 -0.047836356 -0.33275577 -0.052499242
0.33814877 -0.21329117 0.075265765 -0.1131341 -0.059295636 0.10751947 -0.23321642 -0.28373688
-0.0132738985 -0.04414783 0.21513431 0.13268138 0.21316582 -0.26969692 -0.33064964 -0.13938685
-0.25109512 -0.0769105 -0.1744262 -0.0354364 -0.0750908 -0.054303728 0.107181564 0.3129573
-0.061009042 0.2868043 0.32422078 0.095531605 -0.05706422 0.17721713 -0.21441932 0.0046970667
00000000: dd16 27be cc72 9f3e a211 96be 6440 98bd
00000010: 13bc a93d a9c0 783e 64de 7fbe 36bd 97be
00000020: 8e04 223e 99c7 963e 0f27 6c3e 78d5 143e
00000030: c36f 8cbe 0a0a 3c3e 171b c0bd c545 833d
00000040: 5a3c 9fbd 34e8 b93e 7a99 70bd 0581 99be
00000050: 0452 2f3e 719f 11ba c895 41be bf21 f6bd
00000060: 40f4 76be 2824 103e 0a4d 883d 1502 3ebd
00000070: f4ce 853c 0ef0 43bd f75e aabe 7209 57bd
00000080: d621 ad3e 0069 5abe f024 9a3d dab2 e7bd
00000090: fbdf 72bd 2b33 dc3d 49d0 6ebe f645 91be
000000a0: c47a 59bc 5bd4 34bd 2b4c 5c3e a1dd 073e
000000b0: 2448 5a3e b715 8abe e94a a9be 6dbb 0ebe
000000c0: 8a8f 80be 4183 9dbd c89c 32be c225 11bd
000000d0: 35c9 99bd 966d 5ebd 0282 db3d f03b a03e
000000e0: 9ee4 79bd 03d8 923e 4400 a63e 13a6 c33d
000000f0: 2cbc 69bd 6878 353e bd90 5bbe dae9 993b

weight f4 [64]
0.45107025 0.14014494 0.057843834 0.27242798 0.70240176 0.3519527 0.5321212 0.9748384
0.86546296 0.8365846 0.3818165 0.47814187 0.49814168 0.43648985 0.2484823 0.44698405
0.045516334 0.44036382 0.4005425 0.33481848 0.2615849 0.8089601 0.052839573 0.4098265
0.8626781 0.62124294 1.013178 0.7012073 0.6213849 0.6740811 0.5719179 0.4171411
0.46152917 0.11489134 0.62609935 0.5169123 0.16119365 0.09597676 0.67228556 0.07801519
0.48798528 0.7082587 0.55161154 0.5765326 0.61185694 0.57913554 0.29393685 0.8682731
0.4149664 0.85848606 0.34292948 0.4099437 0.10533558 0.95408684 0.17849717 0.68472815
0.24107684 0.2666371 0.42467126 0.2717962 0.7321623 0.88721037 0.3039088 0.3612581
00000000: aef2 e63e 2882 0f3e a8ed 6c3d ae7b 8b3e
00000010: 9ad0 333f 2533 b43e 1839 083f 028f 793f
00000020: fb8e 5d3f 692a 563f 747d c33e 03cf f43e
00000030: 6d0c ff3e 997b df3e 2572 7e3e 18db e43e
00000040: 566f 3a3d 5e77 e13e e813 cd3e 546d ab3e
00000050: 75ee 853e 0218 4f3f 4f6e 583d c7d4 d13e
00000060: 79d8 5c3f c709 1f3f d1af 813f 5282 333f
00000070: 1513 1f3f 9490 2c3f 3669 123f 8593 d53e
00000080: 8d4d ec3e 274c eb3d 0c48 203f 5d54 043f
00000090: f30f 253e 778f c43d e81a 2c3f 6ec6 9f3d
000000a0: 35d9 f93e 7150 353f 6a36 0d3f a497 133f
000000b0: a8a2 1c3f 3a42 143f e47e 963e 2547 5e3f
000000c0: 7a76 d43e bec5 5b3f 7494 af3e 24e4 d13e
000000d0: 2eba d73d 093f 743f f6c7 363e 584a 2f3f
000000e0: d9dc 763e a884 883e 836e d93e df28 8b3e
000000f0: fd6e 3b3f 3820 633f ef99 9b3e d2f6 b83e

bias f4 [64]
-0.021985583 -0.1641542 -0.09271263 -0.14991805 -0.09842425 -0.18673581 0.09114107 -0.15271084
-0.04677553 -0.036094014 0.046394456 -0.25707036 0.12897071 0.04935647 0.06359656 -0.07335433
-0.078932695 -0.17160912 -0.005810976 -0.06213446 -0.07970735 0.022122124 -0.1190483 0.080273785
-0.031670365 0.11562871 -0.020475887 0.03770914 -0.3125689 -0.12342099 -0.2262956 -0.26410195
-0.034748215 -0.18281898 -0.15261875 -0.24568225 -0.17298943 -0.11944847 -0.05308637 -0.15041386
-0.1405875 -0.2527778 -0.0990428 -0.16921885 -0.007880209 -0.1531802 -0.08104666 0.13177603
-0.12854947 -0.07735363 -0.08243978 -0.15649284 -0.17457914 -0.15933448 0.07018425 -0.24025233
-0.16741529 -0.06767503 -0.1884409 -0.060262408 -0.15895961 0.0025732645 0.09794113 0.04687291
00000000: 1c1b b4bc 0a18 28be 1fe0 bdbd 1e84 19be
00000010: a792 c9bd ac37 3fbe 2ba8 ba3d 3b60 1cbe
00000020: b397 3fbd 51d7 13bd 1d08 3e3d ba9e 83be
00000030: e610 043e 032a 4a3d ea3e 823d cc3a 96bd
00000040: 77a7 a1bd 4dba 2fbe 006a bebb b480 7ebd
00000050: 9b3d a3bd 7539 b53c 98cf f3bd 9566 a43d
00000060: c9b8 01bd bfce ec3d 0cbd a7bc e674 1a3d
00000070: 0809 a0be 25c4 fcbd 09ba 67be 5f38 87be
00000080: 2554 0ebd e634 3bbe 1748 1cbe 2194 7bbe
00000090: 2424 31be 66a1 f4bd 1871 59bd 1706 1abe
000000a0: 2bf6 0fbe 186c 81be f4d6 cabd b547 2dbe
000000b0: fe1b 01bc 45db 1cbe cbfb a5bd 4cf0 063e
000000c0: 79a2 03be 946b 9ebd 30d6 a8bd a93f 20be
000000d0: e0c4 32be 9428 23be c3bc 8f3d b504 76be
000000e0: ea6e 2bbe 3599 8abd a7f6 40be b7d5 76bd
000000f0: 4fc6 22be 37a4 283b 5c95 c83d cffd 3f3d

running_mean f4 [64]
-0.2150301 0.31352997 -0.2823762 -0.07462732 0.034635 0.30142832 -0.27657542 -0.3408091
0.108877435 0.2495157 0.20591398 0.20339584 -0.28931582 0.16160125 -0.11413875 0.05321933
-0.06798328 0.42180967 -0.10675682 -0.32437944 0.16129525 -0.03467071 -0.12262941 -0.1561387
-0.27672789 0.09968017 0.01476959 -0.08954872 0.06547537 -0.08333995 -0.2543274 0.008424009
0.3200263 -0.11808311 0.049817212 -0.024941528 -0.041244388 0.124933496 -0.25891894 -0.27649015
-0.050815698 -0.029058695 0.19014634 0.12681371 0.16588202 -0.25305185 -0.36519158 -0.15501627
-0.2552321 -0.1361905 -0.21880057 -0.036870465 -0.04935423 -0.09827521 0.044942066 0.39681196
-0.020661261 0.27817115 0.3222383 0.06326714 -0.10188954 0.15502733 -0.24823788 -0.024013964
00000000: da30 5cbe 0087 a03e 9d93 90be 35d6 98bd
00000010: 6edd 0d3d d054 9a3e 4b9b 8dbe 887e aebe
00000020: 22fb de3d 0b81 7f3e 1ddb 523e 0047 503e
00000030: 3421 94be cc7a 253e 94c1 e9bd 83fc 593d
00000040: d13a 8bbd 70f7 d73e 52a3 dabd 1015 a6be
00000050: 952a 253e e002 0ebd 2125 fbbd d3e2 1fbe
00000060: 47af 8dbe 1e25 cc3d 27fc 713c 5265 b7bd
00000070: f317 863d 23ae aabd 3337 82be db04 0a3c
00000080: 7dda a33e 8fd5 f1bd 220d 4c3d 2d52 ccbc
00000090: e0ef 28bd 22dd ff3d 0691 84be 1e90 8dbe
000000a0: 1f24 50bd 800c eebc b9b5 423e 74db 013e
000000b0: fadc 293e 0390 81be 64fa babe 96bc 1ebe
000000c0: c8ad 82be 8675 0bbe 420d 60be 7c05 17bd
000000d0: a927 4abd 8344 c9bd 2c15 383d f02a cb3e
000000e0: ce41 a9bc 736c 8e3e 6bfc a43e 3492 813d
000000f0: 77ab d0bd 7cbf 1e3e 1232 7ebe efb8 c4bc

running_var f4 [64]
0.026244571 0.0049688206 0.008762677 0.0032896423 0.02958294 0.038734417 0.013265743 0.0155957965
0.027745098 0.025023427 0.012497321 0.020927673 0.0336905 0.029369285 0.012159657 0.019859402
0.014851324 0.026336081 0.026457861 0.022241153 0.009856144 0.012166586 0.027516736 0.025834598
0.014107285 0.05803498 0.03626302 0.014919179 0.025247436 0.012371134 0.04596277 0.021963075
0.004760119 0.04793994 0.015986202 0.042325813 0.007662778 0.03175367 0.022148747 0.0051322184
0.016109731 0.016430752 0.024135318 0.012200228 0.024809632 0.011164297 0.013891116 0.011637753
0.011798035 0.033839982 0.0316603 0.0034955936 0.013129896 0.01633765 0.043144472 0.0415441
0.018162787 0.02697103 0.006959555 0.019413479 0.03954117 0.0059231343 0.021071872 0.01785423
00000000: dbfe d63c 7dd1 a23b 5591 0f3c 0a97 573b
00000010: ec57 f23c fba7 1e3d 8f58 593c 8385 7f3c
00000020: b049 e33c eefd cc3c 90c1 4c3c 8370 ab3c
00000030: 0dff 093d db97 f03c 4c39 473c 2fb0 a23c
00000040: f852 733c c4be d73c 28be d83c 1433 b63c
00000050: aa7b 213c 5c56 473c c76a e13c 14a3 d33c
00000060: 3e22 673c 16b6 6d3d 8888 143d 926f 743c
00000070: b6d3 ce3c 4cb0 4a3c 7543 3c3d e8eb b33c
00000080: c6fa 9b3b ac5c 443d 7ff5 823c d55d 2d3d
00000090: 0a18 fb3b 2310 023d 4a71 b53c 2b2c a83b
000000a0: 8ef8 833c c999 863c 6eb7 c53c 77e3 473c
000000b0: 923d cb3c 75ea 363c 9097 633c 46ac 3e3c
000000c0: 8c4c 413c cb9b 0a3d 3bae 013d 5416 653b
000000d0: c61e 573c 89d6 853c 42b8 303d 252a 2a3d
000000e0: 20ca 943c 59f2 dc3c fb0c e43b 0409 9f3c
000000f0: ecf5 213d da16 c23b eb9e ac3c 0943 923c

weight f4 [64, 64, 3, 3]
-0.12176602 -0.15925993 0.060138214 -0.09735513 -0.074288554 0.15601285 0.028404262 0.051749792
-0.018993543 0.08958322 0.09174864 0.12292554 -0.062379185 0.14614442 0.09518137 0.06087322
0.04458022 -0.052835584 0.01808042 0.09706854 0.022690188 0.08228885 -0.00027784874 -0.14772487
-0.009973677 -0.10545215 0.045479856 0.0915927 0.018335102 0.06590198 0.05638061 0.04413074
-0.01849078 0.0348358 0.0045189587 -0.02923083 0.09271811 -0.08472322 -0.05838896 0.011432365
-0.07032266 0.034950256 -0.024589736 -0.053375572 -0.107647784 0.0674632 -0.038871873 -0.077466905
0.10727503 -0.06510699 -0.031890023 -0.049129937 -0.06976021 0.0037046738 0.014485233 -0.009384659
0.04104787 -0.08124488 -0.031510554 0.0397988 0.0066932803 -0.00638175 0.011785552 -0.13771161
-0.13426526 -0.083386816 0.04288398 -0.0120028695 -0.10175092 -0.08941545 0.048982844 -0.06511789
0.053854577 -0.16090973 -0.04505318 0.0766793 -0.12354998 -0.10649364 0.0024136107 -0.21944812
-0.07765602 0.11407324 -0.046811055 -0.012782891 0.04265315 -0.1799597 0.05038085 -0.15123379
-0.038824435 0.06787449 0.047115266 0.06159618 0.022992026 -0.011333962 0.024237897 0.11217923
-0.05830054 0.12268674 0.025644876 0.030966701 0.109625705 -0.018776061 0.010496721 0.034993116
-0.048427086 -0.021055 -0.025239255 -0.06535601 -0.005790058 0.022844374 0.013426705 0.015491956
-0.00766082 -0.054960802 0.11633801 -0.0074276477 -0.010593936 0.033224203 -0.066825286 -0.023192415
0.0035406477 -0.13981187 0.013400939 -0.12767434 -0.04646136 -0.014252505 0.06620938 0.16135044
0.042783093 0.02531307 0.12009441 0.06517223 0.023627084 0.08813478 -0.008427317 -0.02646719
0.054541506 0.061688025 -0.12568653 0.049091205 0.07468835 -0.061605178 0.046586633 0.028179703
0.034667436 0.122365765 -0.09801587 0.12873574 0.06951783 -0.08865828 -0.041050512 -0.01782092
0.105268806 0.08920542 0.10306668 0.023718078 0.100397475 0.089858934 -0.07565241 0.03510796
0.060975082 0.053952754 -0.079625145 -0.09287907 -0.16560023 -0.18369807 -0.018502662 0.01817122
-0.055513214 0.0071500596 -0.0770362 0.087593034 -0.020361498 0.066125125 -0.00030230766 -0.0019553294
-0.006830987 0.10234296 0.0019586037 -0.052758858 -0.047933925 0.085081935 0.017582726 -0.0020112523
0.09850649 -0.016549308 0.05063686 -0.08154244 -0.009630249 0.04125948 0.00021391183 -0.06806302
-0.015711084 0.04244955 -0.096388794 0.06666212 -0.077931985 0.05071608 0.08703584 0.09782296
-0.056591872 0.0741972 0.0135113085 -0.04879496 -0.013573167 -0.044646874 0.023362027 -0.032376498
-0.0837232 0.031995878 -0.036362857 -0.029323775 0.066867374 -0.00828802 0.028763704 0.029760065
0.014998056 -0.07772947 0.040297467 -0.1354758 -0.019146174 0.03744499 -0.050160058 -0.05172143
-0.13150926 -0.015347599 0.0369497 -0.056186758 -0.052718237 0.027096657 0.06853569 -0.046833
0.12692986 -0.08888318 0.08529788 -0.07045955 -0.092570946 0.10308273 0.04863865 -0.026808977
-0.036236975 0.065614365 0.064014494 0.100028515 -0.029165244 -0.036521178 0.05747379 -0.055989932
0.13490969 -0.12060092 0.069345236 0.011902949 0.11251956 0.042426758 0.009762522 -0.031326097
00000000: 7760 f9bd 0915 23be 7d53 763d 2062 c7bd
00000010: 9924 98bd d5c1 1f3e 0eb0 e83c 97f7 533d
00000020: 5998 9bbc 6877 b73d b6e6 bb3d 63c0 fb3d
00000030: 5181 7fbd e2a6 153e 73ee c23d 3356 793d
00000040: c099 363d 206a 58bd 641d 943c dfcb c63d
00000050: c6e0 b93c 0e87 a83d 3aac 91b9 3045 17be
00000060: a268 23bc 4cf7 d7bd 1649 3a3d f494 bb3d
00000070: 7f33 963c 9ef7 863d 5bef 663d 6fc2 343d
00000080: fa79 97bc fcaf 0e3d c613 943b 7e75 efbc
00000090: fee2 bd3d 5e83 adbd 4329 6fbd d04e 3b3c
000000a0: 5405 90bd 0028 0f3d 6a70 c9bc 58a0 5abd
000000b0: 7176 dcbd 252a 8a3d 1d38 1fbd f8a6 9ebd
000000c0: 03b3 db3d d056 85bd 1d9f 02bd 793c 49bd
000000d0: 71de 8ebd 1dca 723b 7953 6d3c 1dc2 19bc
000000e0: d021 283d b763 a6bd 3611 01bd 1104 233d
000000f0: 4e53 db3b 001e d1bb 3018 413c 4604 0dbe
00000100: d57c 09be b5c6 aabd 1da7 2f3d afa7 44bc
00000110: c962 d0bd 731f b7bd 3ca2 483d 875c 85bd
00000120: 9e96 5c3d 85c5 24be af89 38bd 090a 9d3d
00000130: c607 fdbd 5619 dabd ab2d 1e3b 02b7 60be
00000140: 1f0a 9fbd 3b9f e93d f3bc 3fbd 556f 51bc
00000150: 12b5 2e3d 5b47 38be 265c 4e3d 08dd 1abe
00000160: 5f06 1fbd c801 8b3d f0fb 403d 474c 7c3d
00000170: c659 bc3c 15b2 39bc 8e8e c63c 39be e53d
00000180: 8ccc 6ebd 2f43 fb3d 3415 d23c e1ad fd3c
00000190: 7183 e03d 41d0 99bc 70fa 2b3c f154 0f3d
000001a0: 7b5b 46bd 897b acbc 8ec2 cebc 5fd9 85bd
000001b0: 87ba bdbb 2024 bb3c affb 5b3c f9d1 7d3c
000001c0: 9e07 fbbb 941e 61bd 9f42 ee3d a063 f3bb
000001d0: 3092 2dbc 1a16 083d b2db 88bd 05fe bdbc
000001e0: 360a 683b d82a 0fbe 9d8f 5b3c 10bd 02be
000001f0: 444e 3ebd 5783 69bc c998 873d 0d39 253e
00000200: 533d 2f3d 5b5d cf3c 0ff4 f53d 0579 853d
00000210: 968d c13c 0280 b43d bb12 0abc b8d1 d8bc
00000220: ea66 5f3d 95ac 7c3d f8b3 00be dc13 493d
00000230: 35f6 983d b655 7cbd a0d1 3e3d 1fd9 e63c
00000240: 71ff 0d3d e79a fa3d 8bbc c8bd 4dd3 033e
00000250: 5d5f 8e3d 7992 b5bd 9524 28bd 2efd 91bc
00000260: 2c97 d73d 55b1 b63d a014 d33d 6a4c c23c
00000270: 319d cd3d f607 b83d a7ef 9abd 5dcd 0f3d
00000280: 02c1 793d 90fd 5c3d 8212 a3bd 6237 bebd
00000290: 1b93 29be 591b 3cbe e592 97bc cfdb 943c
000002a0: d361 63bd 0c4b ea3b 28c5 9dbd fa63 b33d
000002b0: 28cd a6bc 9c6c 873d 0c7f 9eb9 fc24 00bb
000002c0: 79d6 dfbb 3099 d13d eb5b 003b ac19 58bd
000002d0: 5d56 44bd 703f ae3d a609 903c 37cf 03bb
000002e0: c5bd c93d 6a92 87bc 9968 4f3d b9ff a6bd
000002f0: 31c8 1dbc b3ff 283d 854d 6039 a064 8bbd
00000300: 88b4 80bc 94df 2d3d 7d67 c5bd 2686 883d
00000310: ce9a 9fbd aabb 4f3d d93f b23d 6757 c83d
00000320: e1cc 67bd b4f4 973d 895e 5d3c 39dd 47bd
00000330: fd61 5ebc a4df 36bd b961 bf3c 389d 04bd
00000340: 1277 abbd 1c0e 033d 38f1 14bd 6a38 f0bc
00000350: c3f1 883d 7aca 07bc dca1 eb3c 61cb f33c
00000360: 68ba 753c a130 9fbd f50e 253d 2bba 0abe
00000370: 70d8 9cbc eb5f 193d a274 4dbd dad9 53bd
00000380: 5daa 06be 7f74 7bbc 9258 173d 1624 66bd
00000390: 14ef 57bd cff9 dd3c 715c 8c3d f6d3 3fbd
000003a0: e7f9 013e 6208 b6bd a8b0 ae3d 194d 90bd
000003b0: d695 bdbd 0a1d d33d 5239 473d 809e dbbc
000003c0: 396d 14bd d360 863d 081a 833d c0db cc3d
000003d0: f3eb eebc 3b97 15bd a369 6b3d b355 65bd
000003e0: c425 0a3e 9dfd f6bd e004 8e3d 9604 433c
000003f0: a870 e63d aec7 2d3d fcf2 1f3c cb4f 00bd

bias f4 [64]
-0.01151001 0.010177149 -0.023943461 0.019904945 0.024287447 0.03541604 -0.052549385 0.02345434
0.006996194 0.0748801 0.07534665 -0.023073236 -0.07118404 0.0688506 -0.056111548 0.067646705
0.043211296 0.047647156 -0.0016636412 -0.009165106 -0.05362583 -0.024473527 -0.027589839 -0.025784789
-0.037956305 -0.03561712 0.0034692902 -0.025698652 -0.015895033 0.013447364 -0.050706916 0.0049851355
-0.0059530037 0.006122014 -0.025906064 -0.010525837 -0.020416342 0.0028904278 -0.0021162038 0.046154056
-0.04925819 -0.06355178 0.011794943 0.03792627 -0.022232663 0.012205129 0.027942156 0.017960813
-0.015068876 -0.035987183 -0.01187504 0.046033632 -0.007409136 -0.014102245 -0.032008354 -0.05491994
0.032358103 0.071459025 -0.004747762 -0.011705457 0.030106394 -0.007812714 0.005479272 0.031988084
00000000: 7b94 3cbc 0fbe 263c 1425 c4bc b20f a33c
00000010: 78f6 c63c 6910 113d 063e 57bd 5123 c03c
00000020: 5440 e53b bd5a 993d 584f 9a3d 1504 bdbc
00000030: f0c8 91bd 8b01 8d3d 39d5 65bd 5b8a 8a3d
00000040: 54fe 303d aa29 433d 890e daba 3e29 16bc
00000050: c2a6 5bbd b57c c8bc 1604 e2bc 9f3a d3bc
00000060: 1278 1bbd 42e3 11bd 085d 633b fb85 d2bc
00000070: 4d36 82bc 5552 5c3c 0eb2 4fbd 595a a33b
00000080: 6a11 c3bb 2d9b c83b f438 d4bc 8f74 2cbc
00000090: 2c40 a7bc 556d 3d3b 02b0 0abb 090c 3d3d
000000a0: f5c2 49bd 7027 82bd 943f 413c 9458 1b3d
000000b0: 4621 b6bc 05f8 473c f3e6 e43c 8e22 933c
000000c0: 72e3 76bc 4c67 13bd 878f 42bc c38d 3c3d
000000d0: 56c8 f2bb 1a0d 67bc 311b 03bd bbf3 60bd
000000e0: ee89 043d 1c59 923d 1d93 9bbb 3fc8 3fbc
000000f0: afa1 f63c e600 00bc 778b b33b f005 033d

weight f4 [64]
0.1946692 0.6675352 0.37064317 0.5990007 0.4998974 0.70737576 0.5432906 0.18312941
0.2029312 0.9876646 0.5608881 0.6257038 0.9792525 0.7476774 0.73672134 0.76407474
0.19033234 0.7156661 0.86204416 0.59439635 0.69432235 0.9325756 0.5676016 0.62356335
0.83510697 0.47669366 0.14634265 0.37066656 0.3859 0.5622717 0.5993115 0.2916603
0.9484803 0.2498457 0.6873173 0.7011833 0.26022413 0.54595333 0.3376486 0.33867028
0.75708216 0.4567704 0.5322442 0.71041036 0.5041899 0.73761266 0.731565 0.41890034
0.7193941 0.6490075 0.23861139 0.30033457 0.34687927 0.568366 0.7740259 0.41278577
0.25547355 1.0106757 0.26040316 0.87371 0.19155896 -0.0024523449 0.8468137 0.27428612
00000000: 5d57 473e 96e3 2a3f f1c4 bd3e 1c58 193f
00000010: 8df2 ff3e 9416 353f 1815 0b3f 4786 3b3e
00000020: 32cd 4f3e 96d7 7c3f 5d96 0f3f 202e 203f
00000030: 4bb0 7a3f c967 3f3f c599 3c3f 679a 433f
00000040: 7be6 423e e535 373f edae 5c3f 5c2a 183f
00000050: 1cbf 313f 46bd 6e3f 574e 113f d9a1 1f3f
00000060: 92c9 553f 3111 f43e d9da 153e 02c8 bd3e
00000070: af94 c53e 0af1 0f3f 7a6c 193f 8054 953e
00000080: 9bcf 723f 8dd7 7f3e 07f4 2f3f c080 333f
00000090: 193c 853e 99c3 0b3f 47e0 ac3e 3166 ad3e
000000a0: 23d0 413f cfdd e93e 2841 083f 74dd 353f
000000b0: 9712 013f 2fd4 3c3f d847 3b3f 1b7a d63e
000000c0: 362a 383f 5b25 263f 8b56 743e 74c5 993e
000000d0: 299a b13e 6f80 113f 9026 463f a858 d33e
000000e0: 6ecd 823e d25d 813f 9053 853e 75ab 5f3f
000000f0: 0828 443e 85b7 20bb c8c8 583f 3b6f 8c3e

bias f4 [64]
-0.15201856 -0.0611407 0.03646922 -0.08352988 -0.056299772 -0.033139184 -0.062421586 -0.08877048
-0.08385601 -0.05573199 -0.20978928 -0.06458504 -0.13742714 -0.26277348 -0.13128623 -0.17212194
-0.032292962 -0.025385335 -0.12486261 0.11250865 -0.02511467 -0.16456237 -0.15595624 -0.0036240485
-0.04348222 -0.06256045 0.0012695073 0.002408312 -0.14329626 -0.0012149481 -0.115346536 -0.087758906
-0.068196334 -0.056708016 -0.05508605 0.028901294 -0.069008656 -0.08524483 -0.101730995 -0.084806435
-0.21453393 -0.108147085 0.012728719 -0.008137925 -0.17586349 -0.09574376 -0.1087045 -0.043354895
-0.009461328 -0.14112476 -0.024246437 -0.06672834 -0.035518467 -0.16255586 -0.08972761 -0.122416995
-0.049077924 -0.07057009 -0.12297685 -0.2358768 -0.010936181 -0.011648069 -0.25377193 -0.08788854
00000000: c1aa 1bbe ac6e 7abd c060 153d b711 abbd
00000010: 979a 66bd f4bc 07bd c7ad 7fbd 4ccd b5bd
00000020: b3bc abbd 3a47 64bd 00d3 56be 2945 84bd
00000030: b3b9 0cbe 3f8a 86be e66f 06be bc40 30be
00000040: a045 04bd e8f4 cfbc f8b7 ffbd ef6a e63d
00000050: 48bd cdbc 0a83 28be feb2 1fbe 7281 6dbb
00000060: 6a1a 32bd b11f 80bd 9965 a63a c5d4 1d3b
00000070: 41bc 12be e53e 9fba ce3a ecbd f1ba b3bd
00000080: 85aa 8bbd aa46 68bd e9a1 61bd 68c2 ec3c
00000090: 6954 8dbd d794 aebd 5758 d0bd ffae adbd
000000a0: c8ae 5bbe 387c ddbd 1e8c 503c ee54 05bc
000000b0: 8f15 34be 4e15 c4bd 77a0 debd e794 31bd
000000c0: b003 1bbc 0283 10be 77a0 c6bc dea8 88bd
000000d0: d07b 11bd 0b75 26be 1cc3 b7bd c3b5 fabd
000000e0: ef05 49bd 0d87 90bd 49db fbbd b089 71be
000000f0: ab2d 33bc 8bd7 3ebc 65ee 81be e8fe b3bd

running_mean f4 [64]
-0.6193118 -0.18535979 -0.30514205 0.72805375 -0.18467307 -0.100859985 0.033470828 -0.13112463
-0.19483511 0.029649077 -0.059826937 -0.48665348 -0.28359467 0.5506916 -0.012962645 -0.2206049
0.3601427 -0.44036642 -0.28130946 -0.1538626 0.6197802 -0.5067134 0.70678645 -0.6250327
0.44132036 -0.08431974 -0.9214369 -0.77568173 0.16202615 -0.47936752 0.07126793 0.34729943
-0.93880415 0.25308487 -0.92645174 0.8489273 0.2736268 0.74053013 -0.5940898 -0.0458214
0.029611714 0.063606925 -0.331251 -0.6002093 -0.1053242 -0.00964834 -0.1404842 -0.45937595
-1.3414937 0.05020564 -0.31971598 0.08677764 0.3084938 -0.19966803 -0.312475 0.5295242
0.5043256 -0.82610124 -0.125209 0.015823022 0.026315652 0.088493936 0.17288786 -0.22594212
00000000: 388b 1ebf f5ce 3dbe 943b 9cbe bb61 3a3f
00000010: f01a 3dbe ae8f cebd b518 093d 8945 06be
00000020: db82 47be 9fe2 f23c 170d 75bd a52a f9be
00000030: 5233 91be 20fa 0c3f 4661 54bc 40e6 61be
00000040: a064 b83e b577 e1be cb07 90be 288e 1dbe
00000050: eaa9 1e3f f8b7 01bf f5ef 343f 2502 20bf
00000060: bef4 e13e d4af acbd 4ae3 6bbf 1493 46bf
00000070: 2fea 253e a96f f5be ecf4 913d 3bd1 b13e
00000080: 7855 70bf 5794 813e f12b 6dbf 4d53 593f
00000090: d018 8c3e 6293 3d3f 4516 18bf 38af 3bbd
000000a0: 4494 f23c 5944 823d bb99 a9be 51a7 19bf
000000b0: 37b4 d7bd 1214 1ebc 17db 0fbe 5333 ebbe
000000c0: 11b6 abbf 6ea4 4d3d d0b1 a3be 7ab8 b13d
000000d0: e6f2 9d3e c775 4cbe b9fc 9fbe e68e 073f
000000e0: 7c1b 013f 5f7b 53bf ca36 00be 489f 813c
000000f0: ec93 d73c 4f3c b53d 8409 313e 5f5d 67be

running_var f4 [64]
0.6131728 0.6059924 0.39667994 0.56131834 0.3131065 0.46193564 0.39313528 0.8085523
0.310313 0.45421043 0.439589 0.39035556 0.45029828 0.27953914 0.31561023 0.6520411
0.836808 0.5046144 0.51306057 0.20907024 0.7396225 0.5788375 0.6713192 0.41385898
0.50119704 0.33129373 0.65191483 0.3354178 0.33905944 0.7874467 0.36930913 0.32493973
0.60168535 0.26965538 0.49656004 0.4761795 0.23961397 0.26027802 0.5664603 0.5013053
0.4743715 0.3126469 0.45944116 0.35353428 0.21091342 0.4790746 0.32462373 0.978359
0.8368013 0.43106124 0.24875489 0.23652875 0.35306275 0.50725776 0.6577583 0.35237402
0.3221833 0.83862615 0.3806162 0.28913486 0.38869017 0.06901775 0.5492885 0.28112704
00000000: e5f8 1c3f 5122 1b3f a219 cb3e 8fb2 0f3f
00000010: 7f4f a03e d482 ec3e 0749 c93e 49fd 4e3f
00000020: 58e1 9e3e 458e e83e cf11 e13e afdc c73e
00000030: 7f8d e63e c11f 8f3e aa97 a13e 2aec 263f
00000040: 0d39 563f 692e 013f f057 033f 8216 563e
00000050: e657 3d3f b22e 143f 93db 2b3f 53e5 d33e
00000060: 734e 003f 559f a93e e4e3 263f e2bb ab3e
00000070: 3399 ad3e 1b96 493f 1616 bd3e 805e a63e
00000080: 0d08 1a3f 4510 8a3e 1e3d fe3e cdcd f33e
00000090: 5d5d 753e 2943 853e 8b03 113f 8b55 003f
000000a0: d2e0 f23e 4113 a03e df3b eb3e 7202 b53e
000000b0: b0f9 573e 4449 f53e 1535 a63e bc75 7a3f
000000c0: 9c38 563f 0fb4 dc3e 9ab9 7e3e 9834 723e
000000d0: a4c4 b43e a5db 013f d962 283f 5e6a b43e
000000e0: 36f5 a43e 34b0 563f 20e0 c23e 7c09 943e
000000f0: 6602 c73e 2e59 8d3d 2c9e 0c3f e2ef 8f3e

weight f4 [64, 64, 3, 3]
0.021491298 -0.048677426 -0.01705019 0.09172572 0.022263808 -0.006514413 0.09510478 0.048141744
-0.036367666 -0.049065586 -0.036206745 -0.035947315 0.07264343 -0.049939774 -0.10467787 0.006342767
0.011001608 -0.023393406 -0.0062658372 0.013842852 -0.023449402 0.095025614 0.051664107 -0.010122382
0.09601604 0.010374546 0.036915686 0.0662339 -0.030734548 0.03774543 -0.0005988976 -0.06660715
-0.037399992 -0.028539723 0.063377395 0.082040325 0.019435875 -0.0024226857 0.027314046 -0.033579875
0.0070470734 0.01801377 -0.052911464 0.0090693105 -0.016302947 -0.018770758 0.022744916 0.046530545
-0.066323064 -0.08453959 -0.0083046295 -0.057932645 -0.05676393 0.01126757 0.023252726 0.0032881226
-0.056346793 -0.016484173 -0.09878101 -0.009607913 -0.019107928 -0.019053178 -0.0074460823 -0.062778495
-0.050309367 0.017383298 0.010629313 0.049651913 -0.07307689 0.08666301 0.01599993 -0.003833115
-0.00414265 -0.023592912 -0.02933553 -0.050581127 0.013042301 -0.032128453 0.078429915 -0.0741915
-0.025895465 -0.038429014 -0.032638293 -0.024024814 -0.013511595 -0.10564097 -0.013663537 -0.017998962
0.008106573 -0.010143618 -0.072865665 0.0068679373 0.023357293 -0.044960383 -0.016357575 0.04179152
0.028045835 0.041934144 0.11623062 0.058762446 -0.058595814 0.017425032 0.010160417 0.0015862348
-0.028518518 0.052034087 -0.062478505 0.040614944 0.009099453 0.022209905 -0.037308242 0.017672697
0.01098905 -0.0036430783 0.01846467 0.09786048 0.116514154 0.0063465224 -0.0054087155 -0.05046961
0.10074805 0.040688824 0.03354746 0.0074547785 0.034635197 0.06396519 -0.018311301 -0.034206264
0.015364885 0.026381409 -0.037688866 0.03850436 0.0070863217 -0.014837076 0.01762871 0.0041712224
-0.07717258 -0.07123814 0.0039124703 -0.012449366 -0.040101822 0.023341399 0.0068695513 -0.008508449
0.07052519 -0.020132348 -0.05836129 0.08360394 -0.08863437 -0.061089247 -0.043060124 -0.04186325
0.03788823 0.013804517 -0.0019071408 -0.04345402 0.0032642824 -0.016374726 -0.058662895 -0.056610633
-0.06521731 0.040129986 0.03627896 -0.05911888 0.015413796 0.0005580486 -0.019870292 0.023383612
0.0056637353 -0.005093378 0.012824864 0.00026421333 0.0055624465 -0.02171028 -0.0027274038 -0.011410195
-0.02219726 0.054293863 0.02872255 0.067485936 0.03503588 -0.029991478 -0.047545288 -0.039165303
0.011467314 -0.014651061 -0.004143047 -0.026519453 0.046328478 0.0037017516 -0.05055914 -0.052900117
-0.028948396 -0.06909517 0.027498776 0.030395659 -0.04784573 -0.026476538 0.0116268955 0.0009282562
0.014963109 0.015156276 -0.008231826 -0.0059240814 0.020670163 0.0085212765 0.028691486 -0.010936388
-0.057145346 0.039090514 -0.038909815 -0.015505768 -0.01798353 0.032667127 -0.020595312 0.017153751
0.011932843 -0.045741957 -0.025238113 0.03836754 -0.03844732 -0.07887602 -0.049335115 0.03583245
0.0135664735 0.007617298 -0.029465772 -0.022491999 0.021712583 0.053010564 0.038429976 0.05587057
0.096282244 0.026462508 0.019421976 -0.00036191352 0.022926202 -0.0014092113 0.056491274 -0.008179965
-0.0050096596 0.015402675 -0.045200672 0.090034924 0.0084195025 0.038154487 0.017703375 0.042151716
-0.030442763 0.019391565 0.11646825 0.028379345 0.028855419 -0.004830872 -0.035757013 0.020281646
00000000: 850e b03c fb61 47bd d7ac 8bbc b2da bb3d
00000010: 9762 b63c db76 d5bb 4bc6 c23d 4730 453d
00000020: 43f6 14bd fff8 48bd 864d 14bd 7e3d 13bd
00000030: 14c6 943d a68d 4cbd 5a61 d6bd fcd6 cf3b
00000040: 1740 343c 87a3 bfbc a751 cdbb 21cd 623c
00000050: f618 c0bc ca9c c23d be9d 533d 59d8 25bc
00000060: 0fa4 c43d 00fa 293c e734 173d a4a5 873d
00000070: 05c7 fbbc f49a 1a3d 56ff 1cba 5469 88bd
00000080: bc30 19bd 23cc e9bc 02cc 813d c204 a83d
00000090: fc37 9f3c ecc5 1ebb b5c1 df3c 0d8b 09bd
000000a0: 23eb e63b 9d91 933c b1b9 58bd 7297 143c
000000b0: c28d 85bc 22c5 99bc 8c53 ba3c d096 3e3d
000000c0: 63d4 87bd 1823 adbd 2410 08bc c84a 6dbd
000000d0: 4b81 68bd 9d9b 383c 807c be3c 8b7d 573b
000000e0: e5cb 66bd d109 87bc b34d cabd 826a 1dbc
000000f0: 3b88 9cbc 6915 9cbc 44fe f3bb 0392 80bd
00000100: 3211 4ebd 6b67 8e3c 9226 2e3c ce5f 4b3d
00000110: 56a9 95bd 607c b13d 4912 833c 0035 7bbb
00000120: 11bf 87bb ec45 c1bc 1151 f0bc 282e 4fbd
00000130: 60af 553c 2099 03bd dd9f a03d b7f1 97bd
00000140: ba22 d4bc be67 1dbd bbaf 05bd b0cf c4bc
00000150: bd5f 5dbc 4b5a d8bd 07dd 5fbc 8f72 93bc
00000160: 6ed1 043c 6b31 26bc 983a 95bd 6f0c e13b
00000170: cb57 bf3c 6128 38bd 5200 86bc 962d 2b3d
00000180: 61c0 e53c 23c3 2b3d 520a ee3d e4b0 703d
00000190: 2a02 70bd f1be 8e3c e177 263c 35e9 cf3a
000001a0: ab9f e9bc b221 553d 76e9 7fbd db5b 263d
000001b0: df15 153c 8cf1 b53c 87d0 18bd 55c6 903c
000001c0: 6b0b 343c b6c0 6ebb 3843 973c 136b c83d
000001d0: f99e ee3d 7df6 cf3b 983b b1bb 39b9 4ebd
000001e0: fe54 ce3d 53a9 263d 1069 093d 3747 f43b
000001f0: a3dd 0d3d 2e00 833d 9501 96bc de1b 0cbd
00000200: 00bd 7b3c d31d d83c a45f 1abd bfb6 1d3d
00000210: 6034 e83b 3517 73bc 166a 903c c0ae 883b
00000220: a80c 9ebd 4de5 91bd 2e34 803b 6df8 4bbc
00000230: cf41 24bd 7636 bf3c f919 e13b 0667 0bbc
00000240: 836f 903d 98ec a4bc 3f0c 6fbd 8b38 ab3d
00000250: f085 b5bd b838 7abd d05f 30bd cd78 2bbd
00000260: b030 1b3d 572c 623c 07f9 f9ba d8fc 31bd
00000270: 92ed 553b 4a24 86bc 8148 70bd 8de0 67bd
00000280: a790 85bd 575f 243d 3f99 143d a426 72bd
00000290: 258a 7c3c 024a 123a 06c7 a2bc fd8e bf3c
000002a0: db96 b93b 5ae6 a6bb 611f 523c 1d86 8a39
000002b0: 2f45 b63b c2d9 b1bc 3ebe 32bb d4f1 3abc
000002c0: 07d7 b5bc 3e63 5e3d 8e4b eb3c 1136 8a3d
000002d0: c881 0f3d b0b0 f5bc d9be 42bd cc6b 20bd
000002e0: 67e1 3b3c 010b 70bc 66c2 87bb 533f d9bc
000002f0: eec2 3d3d 1699 723b 1a17 4fbd cbad 58bd
00000300: 3025 edbc c581 8dbd 1d45 e13c 5100 f93c
00000310: e2f9 43bd 53e5 d8bc bc7e 3e3c 3856 733a
00000320: d427 753c 0752 783c c8de 06bc cc1e c2bb
00000330: 7954 a93c d39c 0b3c 680a eb3c 892e 33bc
00000340: 3d11 6abd 601d 203d e65f 1fbd e80b 7ebc
00000350: 3252 93bc f7cd 053d 80b7 a8bc 0686 8c3c
00000360: f981 433c eb5b 3bbd 29c0 cebc 4827 1d3d
00000370: f07a 1dbd c089 a1bd 9e13 4abd 0cc5 123d
00000380: ea45 5e3c 879a f93b 3462 f1bc 2441 b8bc
00000390: 96de b13c 9b21 593d c068 1d3d 8ad8 643d
000003a0: a02f c53d e7c7 d83c d61a 9f3c 36bf bdb9
000003b0: bbcf bb3c 49b5 b8ba 6563 673d 4305 06bc
000003c0: 1228 a4bb 805b 7c3c 5724 39bd 3b64 b83d
000003d0: f4f1 093c e147 1c3d ab06 913c 47a7 2c3d
000003e0: 1a63 f9bc 0fdb 9e3c e886 ee3d cd7b e83c
000003f0: 3362 ec3c 4b4c 9ebb f275 12bd b225 a63c

bias f4 [64]
0.03918955 -0.0038966574 -0.042912457 -0.033436257 0.0013854823 -0.0018946454 -0.025506865 -0.0028709103
0.0023068734 0.0348464 -0.008591022 -0.009082359 0.020957418 0.038892046 0.0018802003 0.016371101
-0.017260244 0.0105248485 -0.04483794 -0.00945935 -0.038345933 0.016823517 0.03647795 -0.030206826
0.02011192 -0.042096242 -0.03808977 -0.02880361 -0.022096295 -0.029392056 0.04430608 0.02766591
0.045014676 0.028067607 0.045977637 0.040588334 0.03479767 0.006597889 0.0043110186 0.03499319
0.004180635 -0.0015852409 -0.04310867 0.04046357 0.031424463 -0.031279463 0.03746929 0.0067170477
-0.002627087 0.0045422195 -0.048925675 -0.023392504 -0.039916813 -0.011214725 0.023565182 0.035845004
0.009369471 -0.04049142 0.00096255494 0.008671734 0.0010750056 -0.0004233093 0.039966393 0.031740915
00000000: 3985 203d 105f 7fbb f9c4 2fbd 75f4 08bd
00000010: 1299 b53a c055 f8ba c6f3 d0bc e225 3cbb
00000020: ea2e 173b 19bb 0e3d 5cc1 0cbc 2dce 14bc
00000030: e4ae ab3c 444d 1f3d 0e71 f63a b01c 863c
00000040: 5b65 8dbc 6a70 2c3c fda7 37bd 64fb 1abc
00000050: a010 1dbd 79d1 893c e769 153d 4e74 f7bc
00000060: c1c1 a43c 1c6d 2cbd 0504 1cbd 8cf5 ebbc
00000070: 4a03 b5bc 9cc7 f0bc 4b7a 353d 9ea3 e23c
00000080: 4f61 383d 0aee e53c 0c53 3c3d f43f 263d
00000090: 0088 0e3d 1b33 d83b 7243 8d3b 0555 0f3d
000000a0: b5fd 883b dcc7 cfba b792 30bd 21bd 253d
000000b0: f0b6 003d e51e 00bd 6679 193d ae1a dc3b
000000c0: 352b 2cbb e6d6 943b 4a66 48bd a3a1 bfbc
000000d0: d07f 23bd f7bd 37bc c50b c13c 36d2 123d
000000e0: 6982 193c 55da 25bd f853 7c3a e313 0e3c
000000f0: 34e7 8c3a 9def ddb9 cdb3 233d c302 023d

weight f4 [64]
0.5733262 0.3778753 0.23223141 0.3497517 0.64519167 0.34030992 0.17313735 0.74707186
0.8888525 0.57554036 0.33845648 0.569494 0.52225506 0.31976828 0.39478815 0.80031765
0.67327124 0.6173924 0.66570294 0.19350846 0.30431023 0.34979892 0.468614 0.7874319
0.2551669 0.273045 0.11548317 0.21739721 0.2801559 0.7850034 0.83205295 0.59466827
0.3583072 0.37667093 0.4759314 0.70907086 0.612256 0.7894677 0.74732757 0.4357208
0.34365612 0.74799484 0.9322809 0.8983243 0.34905866 0.21414629 0.89245147 0.41373822
0.4130911 0.7102366 0.93135 0.64980644 0.5136409 0.39461932 0.24252193 0.22397085
0.7592427 0.8782539 0.71561676 0.8628036 0.47270355 0.3745951 0.8562031 0.41055822
00000000: 81c5 123f df78 c13e 12ce 6d3e a812 b33e
00000010: 482b 253f 1a3d ae3e eb4a 313e 1a40 3f3f
00000020: d68b 633f 9d56 133f 2b4a ad3e 5cca 113f
00000030: 82b2 053f abb8 a33e ac21 ca3e 9ee1 4c3f
00000040: 815b 2c3f 6e0d 1e3f 826b 2a3f 1527 463e
00000050: 8dce 9b3e d818 b33e 2dee ef3e 2395 493f
00000060: 3ca5 823e 8ecc 8b3e 7182 ec3d 609d 5e3e
00000070: 9870 8f3e fcf5 483f 6c01 553f 2e3c 183f
00000080: 0b74 b73e 03db c03e 48ad f33e ab85 353f
00000090: cfbc 1c3f 8e1a 4a3f dc50 3f3f cc16 df3e
000000a0: b2f3 af3e 977c 3f3f f6a9 6e3f 95f8 653f
000000b0: d1b7 b23e 2a49 5b3e b377 643f 7fd5 d33e
000000c0: ad80 d33e 11d2 353f f46c 6e3f b759 263f
000000d0: f87d 033f 8b0b ca3e ab57 783e 9d58 653e
000000e0: bb5d 423f 3fd5 603f a932 373f b2e0 5c3f
000000f0: 3306 f23e eeca bf3e 2030 5b3f b034 d23e

bias f4 [64]
-0.10757258 -0.059646472 -0.07797472 -0.11550085 -0.07163679 -0.0751572 -0.015074934 -0.091483206
-0.06795802 -0.108292915 -0.0032893994 -0.10948506 -0.13178188 -0.07790451 -0.025923388 -0.16292351
-0.21498682 -0.14853048 -0.086984076 -0.06728693 -0.03613286 -0.077335306 -0.15010849 -0.13148278
-0.07205004 -0.076814905 -0.023300132 -0.05016262 -0.065787084 -0.15579492 -0.1738 -0.08715133
-0.094638176 -0.062808484 -0.12634905 -0.18361819 -0.11265873 -0.19292627 -0.109158844 0.013521061
-0.10243859 -0.14630152 -0.15205312 -0.11405275 0.026995089 -0.07867043 -0.27211094 -0.11509989
-0.07525299 -0.037771244 -0.035964813 0.034048118 0.122128904 -0.10901684 -0.09118591 -0.08202929
-0.11524118 -0.15670529 -0.16603205 -0.14812776 -0.043543182 -0.07907902 -0.17347768 -0.02236634
00000000: 034f dcbd dc4f 74bd 36b1 9fbd b68b ecbd
00000010: 4fb6 92bd 05ec 99bd dbfc 76bc 8c5b bbbd
00000020: 932d 8bbd adc8 ddbd f792 57bb b439 e0bd
00000030: d4f1 06be 668c 9fbd 495d d4bc 6cd5 26be
00000040: 8125 5cbe 6018 18be b524 b2bd bbcd 89bd
00000050: 0d00 14bd f961 9ebd 0ab6 19be 6ca3 06be
00000060: f98e 93bd 2251 9dbd ebdf bebc 5277 4dbd
00000070: 61bb 86bd b488 1fbe a1f8 31be 667c b2bd
00000080: a9d1 c1bd bca1 80bd a561 01be 6806 3cbe
00000090: 9fb9 e6bd 778e 45be ac8e dfbd 7187 5d3c
000000a0: 53cb d1bd 11d0 15be d0b3 1bbe 7d94 e9bd
000000b0: ce24 dd3c f61d a1bd 2052 8bbe 7eb9 ebbd
000000c0: 3d1e 9abd 05b6 1abd d74f 13bd 0a76 0b3d
000000d0: b81e fa3d 3944 dfbd aebf babd f9fe a7bd
000000e0: 9103 ecbd 5a77 20be 4e04 2abe ceae 17be
000000f0: 565a 32bd 2ef4 a1bd 22a4 31be 9d39 b7bc

running_mean f4 [64]
0.17959218 0.3730695 0.55110145 -0.14429298 0.2124764 0.18199229 0.33910477 -0.36479276
-0.18526503 0.7803568 0.61347157 -0.5202053 -0.0752838 0.9559251 0.29210013 -0.31623107
-0.62517804 -0.09451325 -1.5008876 -0.28073487 -0.23924667 0.033763207 -0.19940612 0.9803551
0.30942613 -0.13841744 -1.8178008 -0.26369423 -0.87215275 -0.3329903 0.6869826 -1.5105792
-0.3585863 0.044324983 -0.020900907 -0.2151578 0.98115915 -0.8357468 -0.10797054 -0.2878901
-0.3932335 -0.34248403 0.10709215 -0.010583821 1.0810449 0.1799341 -0.20346616 0.21782175
-0.38052747 0.09075664 0.011576351 0.6344493 0.64392054 -0.08239624 -0.00899597 0.3235944
0.12196863 -0.3080971 -0.8629534 -1.0152051 -1.7597806 -0.24254751 -1.9764421 0.010437986
00000000: 03e7 373e f702 bf3e fc14 0d3f 8ac1 13be
00000010: 6a93 593e 305c 3a3e 249f ad3e 1ec6 babe
00000020: 1eb6 3dbe 77c5 473f 790c 1d3f 2d2c 05bf
00000030: 652e 9abd 82b7 743f 268e 953e 0ae9 a1be
00000040: ab0b 20bf 2a90 c1bd 161d c0bf 7bbc 8fbe
00000050: 14fd 74be 4a4b 0a3d 1e31 4cbe 8df8 7a3f
00000060: 1a6d 9e3e 4dbd 0dbe b2ad e8bf ee02 87be
00000070: 6745 5fbf b47d aabe 17de 2f3f a95a c1bf
00000080: a098 b7be 1d8e 353d 6138 abbc 5452 5cbe
00000090: 3f2d 7b3f 81f3 55bf a91f ddbd 5566 93be
000000a0: e755 c9be 115a afbe 2153 db3d c367 2dbc
000000b0: ae5f 8a3f a540 383e 6f59 50be aa0c 5f3e
000000c0: 7fd4 c2be 9ede b93d bcaa 3d3c 456b 223f
000000d0: fad7 243f 5cbf a8bd d563 13bc 2aae a53e
000000e0: b0ca f93d e7be 9dbe 84ea 5cbf 3ef2 81bf
000000f0: 7e40 e1bf 605e 78be 0efc fcbf 1604 2b3c

running_var f4 [64]
0.96893805 1.1019828 0.9258912 0.77033967 1.0881813 0.93833506 0.9286439 0.9459384
1.3981713 0.81306237 0.6156878 0.9926975 1.125056 0.93845224 1.072989 0.9348835
1.0717115 1.1577542 1.6874365 1.1356497 1.0054728 0.73722064 0.9097739 1.0761514
0.73511654 0.89691204 1.9484922 0.8782782 1.086407 1.3225299 1.2659974 1.0646207
0.98838824 0.5238128 0.92388886 1.2056026 1.0913743 1.6011224 1.5480952 0.62373835
0.90803546 1.2949103 1.4394516 1.2877402 1.1222148 1.0902272 1.1437545 1.0229084
1.1880808 0.9537592 1.1340301 0.78192645 0.7584344 0.8734329 0.92490596 1.0005028
1.2964108 1.7392573 1.3439218 1.310619 1.4760724 1.2986418 1.8690534 0.65193474
00000000: 530c 783f c60d 8d3f 3507 6d3f fb34 453f
00000010: 8649 8b3f ba36 703f 9bbb 6d3f 0529 723f
00000020: 47f7 b23f db24 503f b79d 1d3f 6c21 7e3f
00000030: d601 903f 683e 703f b457 893f 8654 6f3f
00000040: d82d 893f 4a31 943f ebfd d73f f85c 913f
00000050: 55b3 803f 7eba 3c3f f1e6 683f 54bf 893f
00000060: 9930 3c3f 079c 653f 3168 f93f d7d6 603f
00000070: 620f 8b3f a948 a93f 340c a23f 7e45 883f
00000080: 0307 7d3f 9818 063f fb83 6c3f 3051 9a3f
00000090: 27b2 8b3f 94f1 cc3f fc27 c63f 51ad 1f3f
000000a0: 0375 683f 9fbf a53f f33f b83f acd4 a43f
000000b0: bca4 8f3f 918c 8b3f 8c66 923f aaee 823f
000000c0: 0813 983f 9029 743f e627 913f 552c 483f
000000d0: c228 423f 4c99 5f3f a3c6 6c3f 7a10 803f
000000e0: caf0 a53f fc9f de3f a105 ac3f 5dc2 a73f
000000f0: f1ef bc3f e539 a63f 243d ef3f 32e5 263f

weight f4 [64, 64, 3, 3]
-0.024161672 0.0011163254 0.008772356 -0.013716191 -0.054806683 -0.027861804 -0.058211543 -0.10258607
-0.01820468 0.00807874 0.018716214 -0.018257365 0.02940906 -0.027208067 -0.043917675 0.08050045
0.051856298 0.01709176 -0.005990592 -0.029447313 0.00078222266 0.027473671 0.04485537 -0.0015940125
0.16602983 0.05338734 -0.011203361 -0.035908934 -0.020365816 -0.011314679 0.0074116644 0.062284138
-0.001860315 0.04688345 -0.0032488517 -0.034879535 0.034965534 0.06056298 0.032245964 0.1399757
0.03208692 0.0020171574 0.022348171 0.037358988 -0.025355833 0.015767617 0.05769862 -0.032167632
-0.03714082 0.0827941 -0.0042095147 -0.09097187 -0.0528368 -0.029649649 -0.057999305 0.0045324387
0.019478114 -0.015128246 -0.03623673 0.08740644 0.10502237 0.16976114 0.06965506 0.023192475
-0.018524656 -0.031306174 -0.0557295 -0.00081212603 0.017338622 -0.0047437456 0.108047515 0.099335045
-0.044668633 0.04198311 0.06837029 0.033203494 0.0350039 0.07563088 0.043262966 -0.019218538
0.025185673 -0.00028362634 -0.03379281 -0.038076423 0.005480889 0.015772788 -0.06341074 0.025830084
-0.04938838 -0.071665175 -0.057668507 -0.04775428 0.045427255 0.06694195 0.013782525 0.048185803
0.051035106 -0.017179796 -0.09257677 0.010899098 -0.03307262 0.034334876 0.056333918 0.014344137
-0.057250638 0.032250058 -0.011212845 0.005863192 0.0051999534 0.041072577 -0.008127822 0.016187819
-0.011386521 0.017707922 0.056323905 0.042519577 -0.043044813 0.001034517 -0.044629704 0.0133993905
0.019088559 -0.012897118 -0.003919412 -0.0438568 -0.012449568 -0.020240273 0.020950448 -0.016394317
0.017856348 -0.028622704 0.010835514 0.005811343 0.11620644 -0.024689153 -0.048205752 -0.060823813
-0.056003015 -0.0082090385 0.060049336 -0.015792409 0.05330252 0.06318192 -0.0038564063 0.021734009
0.020473568 0.018233888 -0.05787182 0.010285713 0.034567427 0.0070192893 0.074264206 0.051907152
-0.008127151 -0.028473396 0.023185145 0.077538796 -0.014261418 -0.0062616 0.0377249 0.014523054
-0.0077934847 -0.007122194 0.083016396 0.03445259 0.03730556 0.045912106 0.06603803 0.014049549
0.030596975 -0.104900844 0.0314819 -0.09257458 0.0026093903 0.0627549 -0.030835574 0.093548395
-0.020406757 0.029563213 -0.08172868 -0.038615838 0.08408079 0.085824676 0.015197127 0.029925685
0.02407835 0.033842534 0.13819356 0.039232843 0.09930241 0.018623596 -0.0040071043 0.024357216
0.036403935 0.06873954 0.00872801 -0.0068945293 0.022486165 0.0025585424 -0.04128808 0.028051728
-0.0107167205 -0.014014843 -0.009704065 -0.007074576 0.046243705 0.0931554 0.023132274 0.012600183
-0.015863651 0.021541134 -0.022472259 -0.041337747 -0.010586773 0.026061328 0.040444348 -0.02295736
0.062674 0.1889176 -0.07992939 0.042515934 0.052830007 -0.04524546 0.09040778 0.11821398
0.028662108 0.06481448 0.04248868 -0.0056246426 0.002583079 0.045993667 0.10951987 0.046492
0.059230585 0.07908041 0.06815002 0.033047546 0.028540602 -0.031009382 -0.08397916 0.00597882
0.06353935 -0.12082106 -0.0062361425 0.007943223 0.04363351 0.0058951764 0.01801523 -0.04831434
-0.0033456734 0.09952294 0.082994066 0.055305004 0.036720987 0.092664056 0.005434922 0.037839334
00000000: b3ee c5bc aa51 923a eeb9 0f3c e0b9 60bc
00000010: f97c 60bd 703e e4bc 3a6f 6ebd a518 d2bd
00000020: fb21 95bc b15c 043c bf52 993c 7890 95bc
00000030: 45eb f03c 74e3 debc 05e3 33bd 6cdd a43d
00000040: 4567 543d 0504 8c3c ba4c c4bb 7e3b f1bc
00000050: 130e 4d3a 7710 e13c 44ba 373d 2fee d0ba
00000060: b903 2a3e afac 5a3d 4d8e 37bc 3f15 13bd
00000070: 36d6 a6bc 3461 39bc 8cdd f23b a71d 7f3d
00000080: d0d5 f3ba dc08 403d b0ea 54bb d8dd 0ebd
00000090: 0538 0f3d e310 783d 5814 043d ca55 0f3e
000000a0: 936d 033d 4932 043b 8313 b73c bd05 193d
000000b0: 09b7 cfbc 172b 813c 6355 6c3d 35c2 03bd
000000c0: f920 18bd f48f a93d f8ef 89bb 764f babd
000000d0: 676b 58bd d2e3 f2bc ae90 6dbd da84 943b
000000e0: 9190 9f3c 76dc 77bc f76c 14bd 2602 b33d
000000f0: f815 d73d ddd5 2d3e 50a7 8e3d 25fe bd3c
00000100: 05c1 97bc e73a 00bd 9e44 64bd dbe4 54ba
00000110: ba09 8e3c 6c71 9bbb 0448 dd3d 2c70 cb3d
00000120: 75f6 36bd 7bf6 2b3d b905 8c3d 6300 083d
00000130: 4060 0f3d 5de4 9a3d 8234 313d 3270 9dbc
00000140: 2f52 ce3c afb3 94b9 546a 0abd 06f6 1bbd
00000150: 0899 b33b ef35 813c 7ddd 81bd 9d99 d33c
00000160: 784b 4abd 31c5 92bd d035 6cbd fe99 43bd
00000170: ee11 3a3d dc18 893d 1ad0 613c 7a5e 453d
00000180: 300a 513d a5bc 8cbc e498 bdbd 2192 323c
00000190: 2877 07bd baa2 0c3d 65be 663d ac03 6b3c
000001a0: a57f 6abd a318 043d 15b6 37bc 0520 c03b
000001b0: 5f64 aa3b b83b 283d 8e2a 05bc 519c 843c
000001c0: 888e 3abc 3410 913c e5b3 663d 0229 2e3d
000001d0: c24f 30bd a198 873a a3cd 36bd 1e89 5b3c
000001e0: 9c5f 9c3c 6f4e 53bc 696e 80bb 30a3 33bd
000001f0: 46f9 4bbc eece a5bc 46a0 ab3c 604d 86bc
00000200: 7a47 923c 297a eabc 7187 313c 146d be3b
00000210: a4fd ed3d e840 cabc 6573 45bd 6422 79bd
00000220: 6b63 65bd 347f 06bc 4bf6 753d 155f 81bc
00000230: be53 5a3d 8665 813d c3bb 7cbb 850b b23c
00000240: 2fb8 a73c 3c5f 953c 000b 6dbd 6885 283c
00000250: 9396 0d3d 1102 e63b d517 983d 989c 543d
00000260: be27 05bc 0a41 e9bc c6ee bd3c a9cc 9e3d
00000270: b9a8 69bc 1c2e cdbb 6d85 1a3d 1af2 6d3c
00000280: 7d60 ffbb 4b61 e9bb 8004 aa3d 291e 0d3d
00000290: b7cd 183d 550e 3c3d f23e 873d 1430 663c
000002a0: 82a6 fa3c 41d6 d6bd 2af3 003d be97 bdbd
000002b0: 4e02 2b3b a485 803d e39a fcbc 4d96 bf3d
000002c0: 122c a7bc 8d2e f23c 5e61 a7bd a42b 1ebd
000002d0: 8d32 ac3d d9c4 af3d 5ffd 783c b626 f53c
000002e0: f63f c53c 789e 0a3d 9d82 0d3e 9eb2 203d
000002f0: 105f cb3d 8390 983c 074e 83bb c988 c73c
00000300: 4b1c 153d 51c7 8c3d edff 0e3c 81eb e1bb
00000310: e834 b83c 38ad 273b b11d 29bd bdcc e53c
00000320: 2f95 2fbc 839e 65bc ccfd 1ebc d8d1 e7bb
00000330: 0a6a 3d3d 42c8 be3d e57f bd3c ff70 4e3c
00000340: 7df4 81bc 0877 b03c be17 b8bc c551 29bd
00000350: 2574 2dbc 917e d53c f9a8 253d 1311 bcbc
00000360: 3a5b 803d 9e73 413e 05b2 a3bd 3025 2e3d
00000370: 4764 583d 4e53 39bd b727 b93d 2c1a f23d
00000380: cccc ea3c 74bd 843d 9c08 2e3d ec4e b8bb
00000390: e048 293b db63 3c3d f44b e03d 656e 3e3d
000003a0: c59b 723d e9f4 a13d 3d92 8b3d dd5c 073d
000003b0: fbcd e93c 6307 febc 44fd abbd fae9 c33b
000003c0: eb20 823d 0871 f7bd 8e58 ccbb 4b24 023c
000003d0: 0db9 323d 532c c13b ad94 933c 42e5 45bd
000003e0: 1643 5bbb afd2 cb3d cbf8 a93d 8087 623d
000003f0: bf68 163d a7c6 bd3d 6e17 b23b 6bfd 1a3d

bias f4 [64]
-0.008831873 -0.012710266 0.04576069 0.019346688 0.03813404 0.04792098 0.008532846 0.04671741
-0.020491162 0.044643603 -0.0025702112 -0.017745016 -0.028210964 0.03364949 0.0061242217 0.018352961
0.04077698 -0.035356425 -0.011969373 -0.0036558814 0.010446524 -0.00039060603 0.026250357 -0.0043494822
-0.025790041 -0.0031113357 -0.025677653 0.027711397 0.0020956926 -0.0008957532 0.0154945515 -0.027303029
-0.009659709 -0.033398483 0.006603862 0.006454852 0.043456197 -0.0036496331 0.029392812 0.002639734
0.030674448 0.004479341 -0.0110265985 -0.02073832 -0.016185978 -0.03387934 -0.016007362 -0.036624264
0.047199514 -0.02192463 0.04645761 0.0139648095 -0.029877778 0.011545936 -0.037976574 0.036320135
-0.009745974 0.002082577 0.0115862675 -0.026980646 -0.025147153 -0.012190973 0.012356775 0.0033982599
00000000: 8fb3 10bc b83e 50bc 906f 3b3d f27c 9e3c
00000010: 7032 1c3d ca48 443d 5acd 0b3c c15a 3f3d
00000020: 15dd a7bc 36dc 363d fd70 28bb ff5d 91bc
00000030: ae1a e7bc 0cd4 093d b2ad c83b f358 963c
00000040: c305 273d e6d1 10bd 301b 44bc 8397 6fbb
00000050: e627 2b3c 41ca ccb9 fd0a d73c 1a86 8ebb
00000060: a345 d3bc 8de7 4bbb f159 d2bc 0303 e33c
00000070: e357 093b fbd0 6aba dcdc 7d3c 9aaa dfbc
00000080: c243 1ebc d9cc 08bd 3665 d83b 3983 d33b
00000090: 20ff 313d af2e 6fbb 32c9 f03c 63ff 2c3b
000000a0: fb48 fb3c 70c7 923b e8a8 34bc 69e3 a9bc
000000b0: 7598 84bc 10c5 0abd df21 83bc 5303 16bd
000000c0: 4754 413d 489b b3bc 564a 3e3d a8cc 643c
000000d0: 3ec2 f4bc 2a2b 3d3c 538d 1bbd 6cc4 143d
000000e0: 94ad 1fbc d87b 083b 54d4 3d3c 8406 ddbc
000000f0: 6701 cebc a6bc 47bc 1274 4a3c 57b5 5e3b
